models/cornellmovielin_GRU_NE65536_NL2_HS100.pt (torch_old, 582720 bytes, 11 tensors)

weight f4 [100, 100]
00000000: bc8f 74bf 7403 94c0 d586 08bf fdea 89c0
00000010: 261b 273f 939c c1be 77fa 8040 2f5a 5f3f
00000020: bae8 d43d e19d 92be d645 9040 314b 3b3e
00000030: f85a 55c0 bfa2 27bf c29c 53c0 9588 1dbf
00000040: 3dc7 1740 229f 4140 4379 20c0 b3e3 68c0
00000050: 7cb6 bebf 1159 98c0 88b8 57be fc08 973e
00000060: 79e0 37c0 d775 1abf da0d 5f40 8e2b 0f3c
00000070: 4f4e c33d dcc8 68bf 157f 24c0 52ac 45c0
00000080: 1b4d 7b40 c105 16bf 4d49 b240 0690 5740
00000090: 991a b940 45d7 c73e 2c88 1b3f 15f1 8140
000000a0: 4da4 e33f 0a19 17c0 47de acc0 bd6d d7bf
000000b0: 5782 2d3f bb7b 24c0 8f0f 7fc0 6287 5dc0
000000c0: 2434 0b40 ecd1 5cbf 1859 7a3e 444f 6540
000000d0: bd0e 6c3f be4b e73f 210d 5b40 9da6 563e
000000e0: eb48 6640 7e60 853e dc73 593f 0dcb afbf
000000f0: fbdc c9bf 4f1e 70be 18db 7bc0 e145 f53f
00000100: 54d4 42c0 ac4d 4abf 3132 0740 c6f6 ef40
00000110: 918a 0540 ab1d d83f 2656 843f 07c3 62c0
00000120: ad23 f9be 659a bb3f a0f1 50bf c0af 03c0
00000130: 4ac8 213e b754 14c0 2e33 afbf bee3 7540
00000140: 8dfe ab3e e12c 4d40 15aa d13f 04a3 de3f
00000150: c4b4 2b40 c8ef b4be 7b62 9ec0 4800 df3f
00000160: 258d 35c0 8cba 8cbf 7abb 75bd 2075 4e40
00000170: 4b97 f43d 7013 babf 4bed 9f3f 6155 7340
00000180: 19be 9b3e 2b3e 05c0 b521 0ac0 0c31 283f
00000190: 0d99 3cc0 29ca 7b3f 0a36 9d3f 6b93 3bc0
000001a0: 0d09 fc3f 13f1 a1bc 506a d93d 8dcf 6dbf
000001b0: 41d8 1e3e 2598 b940 8784 8f3e 99e0 503f
000001c0: 1549 ddbf 492a 753f 7983 3d3d d85e 5e3e
000001d0: b458 3cc0 747a 3cbe 2fa9 3140 be45 66bf
000001e0: d10a b03f 668b 2240 5360 773f a292 0c40
000001f0: 589c 8ec0 a3fe 33c0 c18e 8ec0 6300 d3bf
00000200: d74a 633f ff60 7440 8d5f e0bc bd05 833f
00000210: e43c b1bf 2886 17c0 42a1 8240 5cee 223e
00000220: 3c33 e3bf e9fe c8bf 736a 7640 e020 4140
00000230: 55f5 6040 b43e 913f 636a 44bf ebcc 0340
00000240: 2647 90be 787d 65c0 353c 803f ba32 adbd
00000250: 7937 8440 c6f5 75c0 70d3 61bf ca86 e9bf
00000260: 7c21 3dc0 2e37 49c0 33c4 d43f 28a6 8c40
00000270: 6bfe e4bf cef7 883f eaef 5b40 f84a 533e
00000280: 8bc3 2dbf f5c7 7dbf 79c6 babf 4928 3fbf
00000290: b762 1fc0 5530 43c0 6d4e debf 4677 f9be
000002a0: f1ba e73e 7fce 933c 7b2b 07c0 412e a33f
000002b0: 492c ab40 fc30 b8bf e896 38bf 344f 72c0
000002c0: de0b 2a3e 9351 05c0 bb8b 4cbe 4419 903f
000002d0: 27a3 99c0 f601 93be ce4e b5bf b8cb 7740
000002e0: e21d 19c0 a887 3040 c6b6 3ac0 0dd8 2f40
000002f0: f1f3 1140 eca3 ad3f 9fbc 673f ffe2 0d40
00000300: 6eed b0c0 5295 bb3e 7927 bf40 3ddf 48bf
00000310: 727d fdbf 6f05 0cbf a8d5 eebf 2638 9ec0
00000320: b752 13c0 2794 b6bf 1138 19c0 8803 75c0
00000330: dfd0 b4bf ec5f ab3f 49d0 9940 b183 d0bd
00000340: 685e b6be 56ea 6b40 bf54 4c40 fae6 5d40
00000350: 0453 8fc0 52d1 3540 3349 8bbe 016b 7fc0
00000360: a5b4 f13f 07de 52c0 c32b 09c0 8f37 b33e
00000370: b82a 3dc0 1c36 42c0 d6a2 0240 a4c0 b140
00000380: e632 11c0 8859 dc3f 1798 d2bf 13e6 6640
00000390: 9d46 803f 6eee 09c0 284f 0ec0 a3d1 d13f
000003a0: 600a e83f 761b 51c0 e973 a040 584d 2140
000003b0: 8c3b d93f 6d8f d7bf d281 0a40 f0bc 0c40
000003c0: b481 653f 79d0 1640 d5ca a0bf b21b e0be
000003d0: 0cb5 0f3f 1569 9ec0 d48b a8be 54fe 4ebf
000003e0: f0bd 473f c8c1 ec3f 6bae ab3f 96fc f0bf
000003f0: 5e5a 57bf 4d44 1240 a70a 8640 6500 af40
-0.9553182 -4.6254215 -0.5333074 -4.309935 0.652758 -0.3781477 4.0305743 0.87246984
0.103959516 -0.28636077 4.508525 0.18290402 -3.3336773 -0.65482706 -3.3064427 -0.6153653
2.3715355 3.0253377 -2.5074012 -3.6388977 -1.489944 -4.7608724 -0.21066487 0.29499042
-2.8730757 -0.6033606 3.4852204 0.008738412 0.095364206 -0.9093149 -2.5702565 -3.0886426
3.9265811 -0.5860253 5.571448 3.3681655 5.784497 0.39031425 0.60754657 4.060679
1.7784516 -2.3609033 -5.4021335 -1.6830364 0.6777701 -2.570052 -3.9853246 -3.461388
2.1750574 -0.86257815 0.24448049 3.582963 0.9220999 1.806999 3.4226763 0.20961995
3.5982006 0.2605018 0.8494241 -1.3733841 -1.5770563 -0.23449062 -3.9352474 1.916195
-3.0442095 -0.7902477 2.1124384 7.4988737 2.0865824 1.6884054 1.033879 -3.5431535
-0.4866003 1.4656492 -0.8161869 -2.057602 0.1579906 -2.3176706 -1.3687494 3.8420253
0.33592644 3.2058642 1.638003 1.7393498 2.682908 -0.3533919 -4.9495215 1.7421961
-2.8367398 -1.099443 -0.059993245 3.2258987 0.11942919 -1.4537182 1.2494291 3.802086
0.3041847 -2.0819194 -2.1583073 0.6569984 -2.9468415 0.98355347 1.2282116 -2.9308727
1.9690262 -0.019768273 0.106159806 -0.9289482 0.15512182 5.7998223 0.28030798 0.8159271
-1.7287928 0.9576765 0.04626796 0.21715868 -2.942914 -0.18406087 2.7759511 -0.8995017
1.3753301 2.5397582 0.96631354 2.1964498 -4.456585 -2.8124168 -4.454926 -1.6484493
0.8878607 3.8184202 -0.027389312 1.0236126 -1.3846707 -2.3675632 4.082185 0.1591124
-1.775001 -1.5702792 3.8502471 3.0176315 3.5149739 1.134726 -0.76724833 2.0593822
-0.28179282 -3.585783 1.0018374 -0.08456941 4.1317716 -3.8431258 -0.88213253 -1.8244259
-2.9551687 -3.143993 1.6622375 4.3952827 -1.7890142 1.0700624 3.4365182 0.20634067
-0.678765 -0.99133235 -1.4591819 -0.74670845 -2.4904 -3.049825 -1.7367684 -0.4872381
0.45259812 0.018042801 -2.1120288 1.274849 5.349156 -1.4389949 -0.72105265 -3.7860842
0.1660609 -2.083104 -0.19975178 1.125771 -4.801166 -0.28712434 -1.4164674 3.871809
-2.392449 2.7582798 -2.9174056 2.7475617 2.280514 1.356565 0.9052219 2.2169797
-5.528983 0.3663736 5.9735684 -0.78465635 -1.9803908 -0.5469579 -1.8658953 -4.944354
-2.3019235 -1.4263963 -2.394047 -3.8283405 -1.4126242 1.3388648 4.8066754 -0.10181368
-0.356189 3.6861777 3.1926725 3.4672227 -4.4788837 2.840901 -0.27204284 -3.990906
1.8883253 -3.2948015 -2.143296 0.35003325 -2.9557323 -3.0345526 2.0411887 5.5547657
-2.2687316 1.7214823 -1.6452664 3.6077926 1.002155 -2.1551776 -2.2235813 1.6392101
1.8128166 -3.267301 5.014149 2.5203457 1.6971297 -1.6840645 2.1641736 2.1990318
0.89651036 2.3564742 -1.25619 -0.4377113 0.5613563 -4.9503274 -0.3291918 -0.80856824
0.78024197 1.8496637 1.3412603 -1.8827083 -0.84122264 2.2854187 4.1888003 5.468798

weight_ih_l0 f4 [300, 100]
00000000: fe43 af3d 20ff 39c0 858f d6be 7a5d 24c0
00000010: bb4f 8dbf eb49 b940 9f68 c43f 91e3 f6be
00000020: 34cf ba3e feb4 ee3f 8603 4e40 86a1 3fc0
00000030: e9e6 b0bf 7cbb 0ec0 7057 16bf 95d0 3540
00000040: 300c 5440 f092 393f 2594 eb3e 08c1 a7bf
00000050: c171 7cc0 fba3 72c0 323e ee3f 1e03 4240
00000060: 6b26 d73f 5b5a c53f 7f33 3abe d04c 0fbd
00000070: 5707 37c0 c470 f03e 6ce2 733e 372f 08c0
00000080: 1445 92be 9d76 21c0 4444 1340 1772 40be
00000090: 3586 fe3d 2872 673f a8d4 3840 d339 cc40
000000a0: f6a7 6cbf ca29 c9bf 5315 23be ab8d 1fc0
000000b0: 4f8a 09bf fcea f0bf 7890 7ec0 e048 8d3e
000000c0: 60dc 0ebe 0cf8 05c1 1df7 9040 2c32 413e
000000d0: 568a d33f db2e e33b 470f 3840 347b bcbe
000000e0: 6be0 0a3f 0b54 9a40 50cf c33f a207 7c3f
000000f0: e480 afc0 f364 a340 3e2c 8140 78b5 7640
00000100: b787 0dbf 8a47 24c0 4fca c43f c23b c6bf
00000110: 5a5e 71c0 998d 78bf f63c 2fc0 3978 1640
00000120: 4f41 1b40 04ce 2ec0 6a55 713f ca4a 47c0
00000130: 0120 eb3f bef4 3640 cc28 73be 99e8 8140
00000140: 2608 24c0 5d8d 0540 b050 acbe baae a43f
00000150: 6622 213f 99d9 8b3f be97 903f 025b 8c40
00000160: 9984 f9be 85d0 bc3f 30a8 1abf 131f dbbe
00000170: 4dee 2540 7315 2c40 252a fb3f 0de0 0340
00000180: b099 5bc0 df5d 373f ee74 8a3f d45d dd3f
00000190: a42e 423f b974 b2bf 9dbb 51bf b6c8 833f
000001a0: 9fa6 14c0 ccac 6240 54ed 80c0 c02a 563d
000001b0: 67e1 e4be 9647 ae3f d5b9 8bbe 770e ebbd
000001c0: 73a7 5e3d 9737 3dc0 1d0d a63f 52b5 98bf
000001d0: a768 3e40 419d a43f fc09 4d40 6a11 23c0
000001e0: 34b5 fc3f a9c4 a23f 4b4b f4be bbeb 39bd
000001f0: 3e6c ba3f d1c4 b03f d96c 663f 703f d4be
00000200: 7ed9 91c0 c21a 3b40 23f7 06bf b777 f8bf
00000210: ad92 03c0 2d62 743c ad0d fe3e e822 083f
00000220: edc2 09c0 a536 8440 62ea ca3f 8e4a 0840
00000230: babb a63f 8580 4dc0 2658 3740 4b19 c6bf
00000240: 726c cfbf 591b 1640 dd60 4a3f a174 bd3f
00000250: 9995 9abf 02e6 d3c0 2e78 eb3f a86a 19c0
00000260: d927 d7bf 0d5e 89bf e7f8 9cbe 1aa7 a53f
00000270: 35a0 983f e4f9 e03f 53fc cd3f ed46 62bf
00000280: 3585 f4be 9fb0 953f 31ef f73f d6f1 72bf
00000290: 7b68 b63e 3235 b2bf cbae 6ac0 ecfc c0bf
000002a0: 6399 aabf f2cd f43e 7eae 3ec0 1f92 ea3d
000002b0: 0d70 d13f 0737 86c0 4a14 ba3e 9da8 43c0
000002c0: 5d1c cc3e 7890 c93c 28f7 d13f 91c6 8140
000002d0: 642c 103e f064 04c0 debd f0be 370a 073f
000002e0: 577a c9bf 448a 94bf a1c1 b1bf dedd 2f40
000002f0: 7515 8d40 76ad 39c0 64c8 0fc0 774c d73e
00000300: 5262 29c0 3c56 1a40 88f2 713f 606f edbe
00000310: 85fb afbf d8ed 833f 5a5d e6bf 8c89 07c0
00000320: d26f 953f ec88 8abf a32a 2bc0 2d02 88c0
00000330: 74d7 54bf 816a d33f bf92 fbbf 5b17 08bd
00000340: 1552 15c0 76ca 2abf 0aeb 06c0 d5dc 70bf
00000350: 0f0a 4340 46e8 8a40 ea7a 1940 f7df 8fbe
00000360: 1294 b23f 956d 37be 9a2c 663f 97e7 47c0
00000370: e4e7 583f 34b1 78bf 7bf8 d03d 3ef4 ab3f
00000380: 0e21 4dc0 350e cabf dfb5 573e 876d 6abe
00000390: 2579 543f e269 3540 ff82 2840 101a f0bf
000003a0: fc6a 0dc0 9adc adbf 308d 503f aa18 0740
000003b0: dacc 0b3f 097b 5d3f a62f 263f 5ca0 9840
000003c0: d770 30c0 1ed9 06c0 446d 403e abbb 5bc0
000003d0: 7d0f 273e 042b 06bf 4ea2 c63f 6dc2 853e
000003e0: 7b91 bbbe a38e 27c0 fd7e 89c0 a6be 27c0
000003f0: 5310 6ac0 8965 e5bd 71ed 3b3f affb 2440
0.0855789 -2.9061966 -0.41906372 -2.5682054 -1.1039957 5.790273 1.5344428 -0.48220494
0.36486208 1.8648984 3.218965 -2.9942336 -1.3820468 -2.2301931 -0.5872717 2.8408558
3.3132439 0.72489834 0.46011463 -1.3105783 -3.944443 -3.7912586 1.861273 3.0314403
1.6808599 1.5418199 -0.18183707 -0.034985363 -2.859823 0.46961033 0.23816842 -2.1278818
-0.28568327 -2.5228646 2.3010416 -0.18793522 0.12427942 0.90408564 2.8879795 6.3820586
-0.9244379 -1.5715878 -0.15926103 -2.4930217 -0.5372667 -1.8821712 -3.9775677 0.27594662
-0.13951254 -8.373058 4.530165 0.18866795 1.6526592 0.006933076 2.8759325 -0.36812747
0.54248685 4.822759 1.5297642 0.98449147 -5.4844837 5.106073 4.0366507 3.854826
-0.5528521 -2.5668664 1.537424 -1.5486987 -3.7713838 -0.9709106 -2.7380958 2.3510878
2.4258611 -2.7313242 0.94270957 -3.1139398 1.8369142 2.8586879 -0.23746032 4.0596433
-2.5629973 2.0867531 -0.3365531 1.2865822 0.6294311 1.092578 1.1296308 4.3861094
-0.48733976 1.4751135 -0.60412884 -0.42797145 2.5926697 2.6888092 1.9622236 2.06055
-3.4312553 0.7162761 1.0816934 1.7294259 0.7585242 -1.3941871 -0.819269 1.0295627
-2.3226697 3.5417967 -4.0289707 0.052286863 -0.44703218 1.3615596 -0.27290216 -0.11477368
0.05435891 -2.956518 1.2972752 -1.1930335 2.9751375 1.286049 3.2037344 -2.5479379
1.9742799 1.2716266 -0.47713694 -0.045390826 1.4564283 1.3810064 0.9000984 -0.4145465
-4.5577993 2.9235082 -0.5272085 -1.9411534 -2.0558274 0.014915985 0.4961981 0.5317826
-2.1525223 4.1316705 1.5852778 2.1295505 1.302604 -3.2109692 2.8647552 -1.5476469
-1.620497 2.3454192 0.7905405 1.4801217 -1.2076904 -6.621827 1.8396051 -2.3971348
-1.6809036 -1.0731827 -0.30658647 1.294162 1.1923891 1.757626 1.6092628 -0.88389474
-0.4775788 1.1694525 1.936987 -0.9490026 0.35626587 -1.3922484 -3.6669185 -1.5077186
-1.332806 0.47813374 -2.9794002 0.11453652 1.636232 -4.194217 0.36343604 -3.0571663
0.3986539 0.02460502 1.6403551 4.055489 0.14079434 -2.0686607 -0.47019857 0.5274996
-1.574046 -1.1604695 -1.3887216 2.7479167 4.4088693 -2.9012122 -2.2466059 0.42050526
-2.646626 2.4115133 0.945107 -0.46374035 -1.3748633 1.0306959 -1.7997239 -2.1177702
1.167475 -1.0823035 -2.6744773 -4.2502656 -0.83141255 1.6516877 -1.9654158 -0.0332254
-2.333135 -0.6671518 -2.1080956 -0.9408696 3.047489 4.3408537 2.398127 -0.2810056
1.3951437 -0.17912896 0.89911807 -3.1235101 0.84728837 -0.9714539 0.10203644 1.3433912
-3.2051425 -1.5785586 0.21065472 -0.22893344 0.8299735 2.8345876 2.6329954 -1.8757954
-2.2096548 -1.3582947 0.81465435 2.1108804 0.54609454 0.8651586 0.64916456 4.769575
-2.7568872 -2.1070018 0.18791682 -3.4333293 0.16314502 -0.52409387 1.5518281 0.26124898
-0.3663443 -2.6180809 -4.2967515 -2.6210113 -3.6572464 -0.11201007 0.7340918 2.5778615

weight_hh_l0 f4 [300, 100]
00000000: e745 353f d7e1 c8bd 7a1d d13f 87f9 fbbe
00000010: c19d 65bf 8b33 14bf da02 603e 0073 36bf
00000020: c63a 3d3e 557e 9abe e74d b5be 92ac bbbe
00000030: f502 1f3e d0dd 243f 41cb 48bf 7b73 a4bf
00000040: 54e2 aebf 2e94 c23f 1739 413e 29fd 403f
00000050: 7241 48bf 9a8c e63e f6d2 9f3d 25af 4240
00000060: 70f7 6cbf 0195 833e 74b0 583f 022e cb3f
00000070: 2e2e 18c0 4216 ae3f 0308 aabe ed6b 4dbd
00000080: 6a9c 873f 6138 9d3f e48e bdbe b2d5 68bf
00000090: 43c6 3abf db15 7340 7ea4 4ec0 e0f5 0fbe
000000a0: ce63 7dbf ceb8 673f 6034 b0bf da46 4b3f
000000b0: a92d 9440 57b9 81bf d385 c3bf ee2f 04bf
000000c0: 2861 3fbf 1cf4 0d40 fa6e 493f e620 323f
000000d0: cc3c 44bf fa54 85be 188c 37bf 0169 f6be
000000e0: bfbb bb3e c46d b3bc f439 b2bf b5d5 11be
000000f0: bfb6 db3f 70b4 7fbf 73a7 3640 ee65 1d3e
00000100: 0834 62bf 9664 73be 24d1 fb3f bed8 8fbe
00000110: b640 f03e 3f7b a4bf 6b4c 75bf 4484 e93d
00000120: b173 2dc0 bd38 79bf bce7 d8bf b9c3 50bf
00000130: daf1 e3bc 5de3 87be 88d4 8e3c 56f5 02c0
00000140: 907d a03f 5085 01c0 2dd0 3ebf b285 283f
00000150: 56a0 1d40 419a f3be dad0 0ec0 a379 2a3f
00000160: 6396 48bf e562 b43d 44b8 e23f c826 fbbe
00000170: b87b 41bf f3b5 bcbc 19d7 2dbf 14f2 2dbf
00000180: e0a0 e5be 7f0f 0cbe 63b7 0bbf a9f4 cc3f
00000190: b30c a9bf d107 87c0 66dd b6bf f8bc 71c0
000001a0: 8634 74bf 3064 f43e f698 89bf 8d98 ef3f
000001b0: eef9 46c0 9a44 973f c457 d73e b844 8540
000001c0: ec73 93c0 7330 e93f 664d dbc0 07fc 013e
000001d0: 79a2 06c0 fd33 42c0 c051 54be c936 a73f
000001e0: e411 7f40 ce02 29c0 5d46 cdbf d013 47bf
000001f0: 8384 50bf f051 8d3e 03ed aa3e 3764 39bf
00000200: 3af6 2e3f 8217 853f e58d dfbd 956f a53f
00000210: 4f8b 9140 80c3 0940 9440 debe 705f 5e40
00000220: 354f 85bf bc2b 0540 9222 ec3e 2be5 573f
00000230: 0753 2a3d 145c 7c3e 987c 553f b5f6 b0be
00000240: aeb5 1340 25cc 2440 6c21 4940 b048 8840
00000250: ddc8 b13f af38 d8c0 35e6 b9bd 82dd e7be
00000260: da0c aebf 75bc e7be a8de 6040 fdaf 1340
00000270: dfe5 533f 9981 88bf 75b4 863d b6ea c040
00000280: 72c1 0b40 abac 873e 2957 0f40 16f0 b23f
00000290: 205e 8c40 aa2e ac40 f50a c9bf f08f 20c0
000002a0: 042d 8140 cb84 c3bf d567 da3e 64de 2fbf
000002b0: 4293 c0bf dea8 353f d86f 1040 f922 3a40
000002c0: 82f9 fa3e 5847 97c0 74fb 893f 5d6b d9bf
000002d0: a92f 8fbf 8b41 cfbc baa2 a23f cb4e 8b3f
000002e0: 5151 0f40 08a1 7840 0bf6 14c0 2b51 9fc0
000002f0: 6218 f4bf f745 9e40 5784 573e 36d8 9a40
00000300: c0b7 89bf 01a1 b03e a057 bebe 904d 053f
00000310: b20c d8bf f5b9 7d3f a33e 8a40 589a 463e
00000320: 5285 343f ba48 8dbf 86d7 11c0 ded8 cc3e
00000330: c95e 0440 df53 22c0 13ab 37bf 5b87 8a40
00000340: 68ce 73bf 0a65 5740 99c1 17c0 ed20 39c0
00000350: a4cc 213f 7e4b 3140 beb3 2240 8ae2 5840
00000360: e307 563d 4a7c d8be 7dd9 053f 59f9 24bf
00000370: 82c8 8fbf 9014 a53f b53b cc3f a837 b03f
00000380: f2a3 64bf b4c9 cc3f 1a2f 14c0 c50c 3e40
00000390: 02c4 2240 4596 823f 16ff c3bf ac44 3ec0
000003a0: 1a7c 41c0 285e 4cbe 2042 5f40 1518 1e40
000003b0: 9f19 833f f161 d53f 557b 53c0 3cd6 02be
000003c0: af48 563f 292d eb3e fba7 b93f 9b48 e2bf
000003d0: f307 e6be 7501 0040 bec4 69bf d42d f13f
000003e0: 9d81 7d40 b4ad b33f 3c50 01bf e03e e4bf
000003f0: a71a 323f d16f 4fbd 9adf a9bf e9f4 f03f
0.7080979 -0.098087005 1.633712 -0.49213812 -0.8969384 -0.5789115 0.21876088 -0.71269226
0.18479452 -0.3017451 -0.35410997 -0.36655098 0.15528472 0.6440096 -0.7843514 -1.2847742
-1.366282 1.5201471 0.18869434 0.7538629 -0.7822486 0.45029145 0.078039095 3.04194
-0.9256506 0.25699618 0.84644246 1.5873415 -2.3778186 1.3600543 -0.33209237 -0.050151754
1.0594609 1.228283 -0.3702308 -0.90951073 -0.72958773 3.798209 -3.2287898 -0.14058638
-0.98980415 0.90516365 -1.3765984 0.79404986 4.6305737 -1.0134686 -1.5275215 -0.51635635
-0.74757624 2.2180243 0.7868496 0.6958145 -0.7665527 -0.26041394 -0.7169814 -0.48126987
0.36666676 -0.021902926 -1.3923936 -0.14241679 1.7165145 -0.998847 2.8539703 0.15370914
-0.88360643 -0.23768839 1.96732 -0.2809505 0.4692437 -1.2850112 -0.9581973 0.11402181
-2.7101862 -0.973522 -1.694572 -0.8154865 -0.027825285 -0.26540652 0.017435327 -2.046224
1.2538319 -2.0237617 -0.745364 0.65829 2.4629111 -0.47578624 -2.2314973 0.6659185
-0.7835447 0.08807925 1.7712483 -0.49053025 -0.75579405 -0.023035979 -0.6790634 -0.67947507
-0.448493 -0.13677786 -0.545767 1.6012164 -1.3207 -4.219704 -1.4286315 -3.7771587
-0.95392644 0.47732687 -1.0749805 1.871843 -3.1090045 1.181781 0.42059147 4.1646385
-4.6079006 1.821791 -6.853198 0.12693797 -2.1036665 -3.034423 -0.2073431 1.3063594
3.985467 -2.6407962 -1.6037098 -0.77764606 -0.81452197 0.27601576 0.3338395 -0.7241854
0.6834446 1.0397799 -0.10915736 1.2924677 4.5482554 2.1525574 -0.43408644 3.474575
-1.0414797 2.0807943 0.46120125 0.8433406 0.041583087 0.246445 0.8339324 -0.34563223
2.3079638 2.57496 3.142665 4.258873 1.3889424 -6.7569194 -0.09077112 -0.45286185
-1.3597672 -0.4526097 3.5135899 2.3076165 0.8277263 -1.066455 0.06577388 6.028651
2.183682 0.26498923 2.2396948 1.3979518 4.38649 5.3806963 -1.5706469 -2.5087852
4.036745 -1.52749 0.42657343 -0.68698716 -1.504494 0.70960796 2.2568264 2.9083846
0.49018484 -4.727459 1.0779862 -1.698589 -1.118642 -0.025299808 1.270591 1.0883421
2.2393382 3.8848286 -2.3275173 -4.978658 -1.9069941 4.9460406 0.21046577 4.838893
-1.0759201 0.34497836 -0.37176228 0.52071476 -1.6878874 0.9911187 4.320146 0.19394815
0.7051593 -1.1037819 -2.2787795 0.40009207 2.0682852 -2.536369 -0.71745414 4.329023
-0.95236826 3.365542 -2.3711913 -2.8926346 0.6320288 2.7702327 2.5422206 3.3888268
0.052253615 -0.42282325 0.52284986 -0.64442974 -1.1233065 1.28969 1.5955721 1.3766985
-0.8931266 1.5999055 -2.3153749 2.9695294 2.5432134 1.0202109 -1.5312221 -2.9729414
-3.0231996 -0.19957793 3.488411 2.4702199 1.0242194 1.6670514 -3.3044026 -0.12777036
0.83704656 0.45932892 1.4504389 -1.7678407 -0.4492794 2.000089 -0.9131583 1.8842111
3.961036 1.4037385 -0.5051305 -1.7831688 0.6957192 -0.050643746 -1.3271363 1.8824741

bias_ih_l0 f4 [300]
00000000: 7967 04be b9ed 60bf 4b0d 4440 f17c 4ac0
00000010: 96e3 0440 c868 cfbf 7841 adbf 8e27 c53f
00000020: a785 7ec0 9ac4 31c0 3563 9a3d d0a4 65bf
00000030: 6ad9 36c0 1f9f 763f 18ed 37c0 d373 6ebe
00000040: 9497 7abe 4bc1 51bf dddf 0cc0 7937 b7bf
00000050: 9ab0 ebbf 7e12 cdbf 7333 b2bf c514 0ec0
00000060: d062 98bf 2884 16c0 23db 973f 9d2f 03c0
00000070: 6201 433f 17dc edbf 129b 28c0 e417 26c0
00000080: a0fb 09c0 f923 d9bf 970c 863f 2e6c d6bf
00000090: 61c0 e93f 7e11 82bf faf8 b3bc 94f7 3e3c
000000a0: 3f2e 60c0 3dae d1bf 2cad 24c0 8ee3 aebf
000000b0: 0a0c 27c0 f93b 8abf a3b7 43c0 cca8 36c0
000000c0: 9e1b 21bf aaea 1ec0 4717 6d3e fb63 1cc0
000000d0: 44cf 3cc0 3acb 85bf a465 4a3f 00ac 27bd
000000e0: cbb6 873e 284c 35c0 6ae2 5ec0 5256 5cc0
000000f0: 3394 7ebe fad6 a83f 0baa d43e e3bd d5bd
00000100: 7d45 cdbf 9842 16c0 1391 963f 7392 34c0
00000110: 55c9 09c0 cfc5 54c0 f026 7340 3bc7 7ebe
00000120: e969 36c0 1b8d bf3f 1b38 08c0 118e 5ebf
00000130: fd25 d1bf 6a43 53c0 6d7b 08c0 cd87 d6be
00000140: 9aa1 12c0 18d7 c1bf b4ba 2dbf dd5d febf
00000150: d578 b2bf 2508 6fc0 02c5 a9bf bc14 373f
00000160: 3291 72c0 fa98 8cbf cad1 2d40 a3f2 23bf
00000170: 7265 1cc0 244d 923f b579 fcbe 95a0 193f
00000180: e4da fdbf 8b03 81bf 1ded efbf 2467 113e
00000190: 050f a8c0 db3e 50c0 6ff3 eb3f 5808 17c0
000001a0: b245 d4bf 0c09 86bf d3f6 00c0 aae0 e7bf
000001b0: b33e a4c0 ac8b 33c0 4f1f c9bf 288b dbbf
000001c0: a083 24c0 931e 98c0 b1a5 81c0 5d99 16c0
000001d0: c75c 64bf 8bf4 9dc0 8970 2cc0 26d2 1ac0
000001e0: f019 7bc0 e644 3bc0 f934 9abf 7e74 bfbf
000001f0: bd99 58bf 997d 3ac0 797d 05c0 87e6 58c0
00000200: c689 6ec0 4d2c a4bf 5eb2 36c0 f577 ecbf
00000210: 8566 54c0 247b 19c0 b088 273f 3197 f4bf
00000220: 5cc0 d1bf 366c 1ac0 a117 6bc0 1b81 33c0
00000230: 1173 9ec0 e60f 35c0 a9e4 44c0 988a 2e3c
00000240: 737d 51c0 d45e 5abe 4c3b 6cc0 9b5b c9c0
00000250: 8a40 63c0 b3b3 25c0 0c94 8ebf f7c4 87c0
00000260: 1571 c1bf 7e52 65c0 d2b2 9fc0 44e7 11c0
00000270: 377b 10bf 8698 1cbf 432c 5dc0 4e4b 7dc0
00000280: 9b01 45bf 59f4 86c0 0b6a f2bf 0bd2 3bc0
00000290: 95e0 03c0 c196 83c0 b721 8dbf 5c2d 9ac0
000002a0: e2c4 afc0 ba6a 59c0 01b0 13c0 d2ca c1be
000002b0: b74c 0ebe be35 cdbf a459 97be 3e68 21c0
000002c0: 40b8 48c0 2550 a4c0 fc42 5ebf 9f1c 5bc0
000002d0: fdf5 8bc0 022d e7bf 1fbc 35c0 8d25 a7bf
000002e0: c61c 86c0 6f5a dbbf 682e 83c0 ffd9 d6bf
000002f0: 0c4b 30c0 9447 6ec0 3800 abbf c628 8dc0
00000300: b199 89c0 55c3 66c0 c27d 85c0 366c 89c0
00000310: 2183 c2be 6b4f a5c0 583c 8ec0 2f8f 0bc0
00000320: 7a74 31c0 a201 593f a4bf 1cc0 e194 f9bf
00000330: ec7c 9f40 3a60 7dc0 4906 8dc0 0cec b73f
00000340: 30be 5240 9e57 4d40 02b9 1cc0 bf4e f0bf
00000350: 57e3 37be 1e42 d23f 5d17 b7bf c991 7f40
00000360: 9425 c5bf 5e22 14c0 ff64 3040 e44f 79bf
00000370: b2ca 6b3f 39e1 cb3e e479 7840 1d76 13bf
00000380: 0ef5 4140 81f8 8440 00a4 77c0 1922 8140
00000390: 57d5 b03e 3b86 8740 eeca c340 e142 bdbe
000003a0: fffa 0bc0 7a10 c33f 1c14 0540 6072 1ec0
000003b0: eda6 a2bf de9c 9ebf bbf6 c4c0 2e10 05c0
000003c0: 2bc5 263f 9e01 a140 3ca5 06c0 6a04 18bf
000003d0: 5a3f 4c3e d070 99bc 4dfb 3ac0 8502 1140
000003e0: 93cb a340 34ff bb3f 4372 10c0 ca1a 57c0
000003f0: 469a 94bf 77a7 4ac0 6fb7 143e 52b6 3ebf
-0.12930097 -0.87862736 3.0633113 -3.1638758 2.0763907 -1.6203852 -1.3535604 1.5402696
-3.9769075 -2.7776246 0.075384535 -0.8970461 -2.85702 0.9633655 -2.873846 -0.23286371
-0.24471885 -0.81935567 -2.2011635 -1.4313804 -1.841327 -1.6021268 -1.3921951 -2.2200177
-1.1905155 -2.3518162 1.186375 -2.049781 0.76173985 -1.8582791 -2.6344647 -2.5952082
-2.155983 -1.6964103 1.0472592 -1.6751764 1.8261834 -1.0161588 -0.021969307 0.011655707
-3.5028226 -1.6381298 -2.5730696 -1.3663194 -2.6101098 -1.0799552 -3.0580833 -2.8540525
-0.62932765 -2.4830728 0.23153411 -2.4436023 -2.9501505 -1.0452645 0.7906134 -0.040935516
0.26506647 -2.8327732 -3.4825692 -3.4427686 -0.24861221 1.3190606 0.41535982 -0.10436609
-1.6036831 -2.3478146 1.1763023 -2.8214386 -2.1529133 -3.3245733 3.7992516 -0.24880688
-2.8502142 1.4964937 -2.1284244 -0.86935526 -1.6339718 -3.3009896 -2.1325333 -0.41900483
-2.2911134 -1.5143766 -0.6786301 -1.9872395 -1.3943125 -3.734872 -1.3263247 0.71516013
-3.790112 -1.0984185 2.7159295 -0.6404211 -2.4436917 1.1429791 -0.49311605 0.60010654
-1.9832425 -1.0079206 -1.8744236 0.14199501 -5.2518334 -3.2538364 1.8433665 -2.3598843
-1.6583769 -1.0471511 -2.015065 -1.8115437 -5.1326537 -2.8054 -1.571268 -1.7151842
-2.5705338 -4.753732 -4.051476 -2.3531106 -0.89204067 -4.9361014 -2.6943686 -2.4190764
-3.923458 -2.9260802 -1.2047416 -1.4957426 -0.84609586 -2.9139159 -2.0857832 -3.3890703
-3.727159 -1.282602 -2.8546367 -1.8474108 -3.3187573 -2.398141 0.65442944 -1.910864
-1.6386828 -2.4128547 -3.6733172 -2.804755 -4.951546 -2.8290954 -3.0764563 0.0106531605
-3.2732818 -0.21325237 -3.6911192 -6.2924323 -3.5508142 -2.589093 -1.113893 -4.2427936
-1.5112635 -3.58316 -4.9905787 -2.2797403 -0.5643801 -0.6117023 -3.4558265 -3.9577212
-0.76955575 -4.2173276 -1.8938612 -2.934695 -2.0605824 -4.1121526 -1.1025914 -4.818037
-5.4927835 -3.397139 -2.3076174 -0.37850052 -0.13896452 -1.6032026 -0.29560578 -2.5219874
-3.1362457 -5.1347833 -0.8682096 -3.423622 -4.373778 -1.806061 -2.839607 -1.3058335
-4.1910124 -1.7136973 -4.099415 -1.6785277 -2.7545805 -3.7231188 -1.3359442 -4.411227
-4.300011 -3.6056721 -4.1716013 -4.2944593 -0.37990668 -5.1659446 -4.444866 -2.1806142
-2.7727342 0.84768116 -2.4491968 -1.9498559 4.9839993 -3.9589982 -4.407017 1.4368911
3.2928581 3.2084727 -2.448792 -1.8774031 -0.17957817 1.6426427 -1.4304005 3.993273
-1.5402093 -2.3145976 2.7561643 -0.9738753 0.92106164 0.3982027 3.8824396 -0.576021
3.030582 4.155335 -3.8693848 4.0354123 0.34537765 4.2351356 6.1185217 -0.36965087
-2.1871946 1.5239403 2.0793524 -2.475731 -1.2707192 -1.2391622 -6.1551185 -2.0791125
0.65144604 5.0314474 -2.103835 -0.59381735 0.19946042 -0.018730551 -2.9215882 2.2657788
5.1186004 1.4687257 -2.256974 -3.36101 -1.160958 -3.1664712 0.145231 -0.7449695

bias_hh_l0 f4 [300]
00000000: b68c 9a3c f267 4ebf 391b 4640 cf75 46c0
00000010: 336f f93f 180d bdbf f01e b7bf 112e c73f
00000020: c674 79c0 bce1 2ac0 0391 043d fffe 6abf
00000030: d0f1 31c0 f742 873f 3e6c 42c0 a1cd 83be
00000040: 11fb 98be 8cf6 47bf 09be 08c0 b954 adbf
00000050: 6b65 ebbf 583f c9bf 6f3d a9bf 1471 14c0
00000060: 1117 90bf 0766 1bc0 83a7 943f 895a 08c0
00000070: 8e79 393f c0e5 debf decf 2bc0 bde3 26c0
00000080: 5e5a 0dc0 2f1b e2bf 6a60 8c3f 6dbc d5bf
00000090: 5120 d33f b255 61bf 818e 5bbc d1ea 41bd
000000a0: 7892 64c0 e0a4 bdbf 8994 23c0 a12d a8bf
000000b0: 92e5 24c0 1a64 83bf 1283 40c0 ea7a 40c0
000000c0: 2617 14bf 54c1 1fc0 8349 6c3e 8dbc 1dc0
000000d0: c762 3fc0 916c 8dbf 5cac 523f d348 4cbe
000000e0: 4625 623e ad05 36c0 28aa 60c0 bbd1 52c0
000000f0: 86c4 67be 6d74 aa3f 7422 d73e c54e bcbd
00000100: 6047 cdbf 6e43 20c0 ebd2 853f 06ad 38c0
00000110: 11fd 06c0 eea2 5cc0 41fe 7540 d00d 8ebe
00000120: fb81 3bc0 4ac1 b73f dd31 07c0 c604 67bf
00000130: 10bd d8bf bc2c 58c0 7d6b 07c0 6875 dcbe
00000140: 8787 0bc0 f65a c1bf a9c5 22bf aebe 02c0
00000150: 7dbe adbf 4094 6cc0 7192 babf 649c 463f
00000160: f57f 75c0 9bdd 87bf 44dd 3340 8173 11bf
00000170: bc35 21c0 aa3a 9e3f 9d7f d1be 14b4 0b3f
00000180: 6554 f5bf b19f 92bf 55ac f0bf 6f4e 853d
00000190: a24d aac0 0587 49c0 f43b f43f 30ad 17c0
000001a0: 840c c8bf 9191 88bf ffea 03c0 1b70 f0bf
000001b0: 4f4b a6c0 d091 37c0 6e08 c7bf 650f debf
000001c0: 805c 28c0 d90b 9ac0 cb11 85c0 f393 0dc0
000001d0: 7a91 53bf d3b1 a1c0 3371 2ec0 d7c4 1dc0
000001e0: 5ba1 72c0 d370 40c0 715b 98bf 33e3 b7bf
000001f0: a2b7 35bf 9bf1 30c0 245e 08c0 22b2 62c0
00000200: d37c 6ac0 41d4 9fbf 14ae 30c0 f9f7 efbf
00000210: 765c 56c0 d430 1fc0 6b5e 3b3f 5b2e f0bf
00000220: 43df c7bf 2aaa 11c0 9e27 6bc0 dd7d 34c0
00000230: c697 9dc0 aa7b 2ac0 7797 45c0 b2c0 4bbc
00000240: 2692 4fc0 1c9f 40be bdbd 69c0 f37c cac0
00000250: a15f 5ac0 823c 2cc0 d12c 85bf 8360 86c0
00000260: d7a2 b3bf 67d2 5fc0 4b9c a4c0 24a3 0ec0
00000270: 00d6 23bf 48c8 0dbf 4c10 66c0 ccbf 7fc0
00000280: ccb8 20bf 431d 8dc0 1c31 fcbf 8d18 3fc0
00000290: 8507 04c0 fce3 83c0 f2b4 88bf 6dcd 95c0
000002a0: 4d14 adc0 8cb2 4dc0 7341 12c0 ed18 d4be
000002b0: 4715 c1bd 86e3 c8bf 0023 edbe a531 2ac0
000002c0: 12bc 4bc0 2c56 a5c0 ad66 64bf f784 61c0
000002d0: 8b1e 8bc0 b7bb dcbf a1ca 34c0 ddbb b8bf
000002e0: 5a00 84c0 1045 e1bf 9043 82c0 df24 d2bf
000002f0: e2f9 32c0 46cc 6dc0 e635 b1bf c151 8dc0
00000300: 4efc 85c0 9817 6bc0 3a23 85c0 fe0f 88c0
00000310: da71 61be 2fee a4c0 2dc4 8ec0 da32 0ec0
00000320: 59fe 3cbe c83a 643e f16c a1c0 70c7 823e
00000330: 2955 bd40 63dd c2bf 5991 1fc0 8a45 0840
00000340: 0e48 053f b3d0 0140 292e 14bf 748b a33f
00000350: 96a9 35c0 6b9b 223f 5ed2 0bc0 589e bb40
00000360: 47b2 5ebe 3d25 ddbf 6238 c83f 293c 81be
00000370: e785 503e 4421 fd3e 6f49 3340 4619 12c0
00000380: 8643 0b40 2a61 1a40 9905 59c0 1de1 c43f
00000390: f942 cb3f 8109 373f ec48 2240 e66b d23f
000003a0: e36a eebf 9029 453f 423d 8940 b501 6cc0
000003b0: 4b1c 25bf f64e f1bf 3fa8 30c0 b4ce f8bf
000003c0: 13e7 eb3f 88e2 2640 4e10 b93d 0322 d2bf
000003d0: 8cae 64be 84d7 fc3f 3a2e 69bf 1acc c5bc
000003e0: 0f30 9340 1721 653f 990d 98c0 1ab8 89bf
000003f0: f89c 8bbf 5258 0ac0 a812 6e3e 2ebf a53d
0.018865924 -0.8062736 3.0954115 -3.1009405 1.948706 -1.4769621 -1.4306316 1.5560933
-3.8977523 -2.6700277 0.032364856 -0.91795343 -2.780384 1.0567311 -3.0378566 -0.2574282
-0.29879048 -0.78110576 -2.1365988 -1.354148 -1.8390325 -1.5722456 -1.3221873 -2.3194017
-1.1257039 -2.4281023 1.161362 -2.1305258 0.724511 -1.7413864 -2.6845622 -2.60765
-2.2086406 -1.7664546 1.0966923 -1.6698128 1.6494237 -0.88021386 -0.013400675 -0.04734308
-3.5714397 -1.4815941 -2.5559409 -1.3138925 -2.5765119 -1.0264924 -3.008 -3.007502
-0.5784782 -2.4961748 0.23074917 -2.4646332 -2.990404 -1.1048757 0.8229425 -0.19949655
0.22084531 -2.8440964 -3.5103855 -3.294051 -0.22633561 1.331678 0.42018473 -0.091947116
-1.6037407 -2.5041156 1.0454992 -2.8855605 -2.109196 -3.4474444 3.8436434 -0.27744913
-2.9298084 1.4355862 -2.1124184 -0.9024166 -1.6932697 -3.3777304 -2.1159356 -0.43058324
-2.180147 -1.5105884 -0.63582855 -2.0428882 -1.3573757 -3.6965485 -1.457594 0.77582383
-3.8359349 -1.0614504 2.81038 -0.5681687 -2.5189047 1.2361653 -0.40917674 0.5457165
-1.916638 -1.1454984 -1.8802592 0.06509101 -5.3219767 -3.148866 1.9080796 -2.3699455
-1.562882 -1.0669423 -2.061218 -1.8784212 -5.196693 -2.8682747 -1.5549448 -1.7348448
-2.6306458 -4.8139462 -4.158422 -2.212155 -0.82643855 -5.052957 -2.7256591 -2.4651392
-3.7910984 -3.0068862 -1.1902906 -1.4366211 -0.70983326 -2.7647464 -2.130746 -3.5421224
-3.6638687 -1.248665 -2.760625 -1.874755 -3.3493934 -2.4873552 0.73190945 -1.8764147
-1.5615009 -2.276011 -3.674293 -2.820182 -4.924777 -2.6637979 -3.0873697 -0.012436079
-3.2432952 -0.18810695 -3.6522057 -6.3277526 -3.4120867 -2.691193 -1.0404302 -4.199281
-1.403407 -3.497217 -5.1440787 -2.2287073 -0.63998413 -0.5538373 -3.5947447 -3.9960814
-0.6278198 -4.409822 -1.9702487 -2.9858735 -2.062959 -4.12158 -1.068022 -4.6813264
-5.408728 -3.2140226 -2.2852447 -0.41425267 -0.094278865 -1.5694435 -0.46315765 -2.65928
-3.183354 -5.166769 -0.8921917 -3.5237405 -4.3474784 -1.7244786 -2.8248675 -1.4432331
-4.125043 -1.7599201 -4.0707474 -1.6417502 -2.7965016 -3.7155929 -1.3844573 -4.4162297
-4.187049 -3.673315 -4.16055 -4.251952 -0.22016087 -5.154075 -4.4614472 -2.2218537
-0.18456401 0.22288048 -5.0445485 0.25542784 5.9166455 -1.5223812 -2.4932463 2.1292443
0.5206307 2.028363 -0.57882935 1.2776933 -2.8384757 0.635184 -2.1847148 5.863079
-0.21747695 -1.7276989 1.5642207 -0.2524121 0.2036358 0.49439442 2.801357 -2.2827926
2.1759963 2.4121804 -3.3909667 1.5381199 1.5879813 0.71498877 2.5357008 1.6439178
-1.8626369 0.77016544 4.2887278 -3.6876042 -0.64496297 -1.8852222 -2.760269 -1.9438081
1.8429893 2.6075764 0.09036313 -1.641663 -0.2233221 1.975327 -0.9108616 -0.024145175
4.5996165 0.89503616 -4.75166 -1.0759308 -1.0907278 -2.1616406 0.23249304 0.08093105

weight_ih_l1 f4 [300, 100]
00000000: 1748 4640 37ac 2440 5181 27c0 4c37 c73d
00000010: 0a77 68bd d584 8e3f b169 49c0 031b 63c0
00000020: 37d8 a240 a747 7b40 4380 4abf 08a8 19c0
00000030: bb4c bf40 498f b03f d86d e540 d890 f03f
00000040: ea64 45bf 40b6 7d40 6224 80bf 058b 133f
00000050: d42c 19bc d943 4c40 bb65 8d3f f27a 1fbe
00000060: 5138 c93f 8a81 ab3f 1170 96bf 910a d03f
00000070: 6d40 c73f 25cd fbbe 666a 0bbf da01 98c0
00000080: 29b3 0e40 8a31 0840 53a9 3a3e 6dd7 f5c0
00000090: dec4 873f 1772 f93f e30a 8940 7568 e03e
000000a0: 4980 743f d514 e03e f6f3 71bf 3554 223f
000000b0: e2d9 c9bf e509 f6bf de51 3640 56a8 25bf
000000c0: f4b6 67c0 ccc5 fb3f 1668 2fc0 34c7 90c0
000000d0: 014e 27c0 a555 4040 325e 4bbf 87aa d33e
000000e0: 79dc c63f 43d3 f93c 72c3 ef3f 747b aec0
000000f0: 7aea 633e 22c4 533f 9ff9 27c0 505b 8cbe
00000100: 4659 eebf 7fbc 8a40 4b4f aac0 a40c 913f
00000110: 534e 14c0 d917 48c0 6535 a4bf d1e8 3b40
00000120: dd35 abbd 8fb4 f4bf 8eb1 d03f e31f 9abf
00000130: ad61 823f c154 cb3f 758f a93d 81f7 d63f
00000140: 89bd b7bf cb2d 3d40 0c43 06c0 87b4 4d40
00000150: a127 71bf 1e87 f6bf 2936 5440 0845 c7bf
00000160: e89b 29bf 155e c4bf 1b10 4340 bc1f 95b8
00000170: 92e5 3a40 eaa4 bcbf eed0 983f 0de8 1840
00000180: 355b 2a3f 0502 8840 138d 18bf 3d8f e73e
00000190: 6ae2 8e3f 7bf1 f73f a803 0bc0 c83a a9bf
000001a0: 2e05 23c0 69ef 42be 5c4c 1740 41a3 9a3f
000001b0: b860 9140 56c1 403e 06e7 983e b5d9 853e
000001c0: db25 1040 643f 52c0 708e 7fc0 b59a 0341
000001d0: 546f 9a3f a04a fd3f ef1d 263f e69f 0e40
000001e0: 36e4 ddbe 2b76 efc0 283a 4f40 0db5 523f
000001f0: 9a32 d1bf 1eb2 fa3e 9a78 fabe 5ffa 27c0
00000200: 8f03 31be 05e2 8540 d564 c53f dbc4 f43e
00000210: 125f ae3f 15b4 9e3f 1177 5340 90e5 10c0
00000220: e9e6 f93e f14a f7bf 1368 cb3f bb45 6d3f
00000230: f90f 8240 b7ef 4940 9ab3 a73f 60f9 6cc0
00000240: 6692 ca3f 3534 20c0 1376 9ac0 8022 b53f
00000250: 11ac 11bf 807a 03bf 39ab d83f 5abb 4c3f
00000260: e69c e6bf 3834 18bf ce51 b5bf b9c0 4940
00000270: 6578 623e 3efb 913f 107e 693f fb99 7d3d
00000280: c3f4 e93d 2b13 bd3e a98a 2abe 4a6c 1d3e
00000290: d019 2f40 1459 f7bf ba92 c43f 34a7 ad40
000002a0: c043 2140 9b91 b140 0548 4740 03dc f9bf
000002b0: 42e5 10c0 5111 d9bf 533a 7640 821a 743d
000002c0: b6ba 0e40 5a77 1540 5af7 f63b 201f 7c40
000002d0: b196 0140 14cc b8bf ad5d 88bf 6ed5 fbbf
000002e0: feed b33f 03d7 5440 43ba b93f f9aa 82c0
000002f0: ecfc 0a3f 3fa9 4b40 937a 0640 06ed 8cc0
00000300: 7c82 6fc0 4824 c83d b8fc 75c0 2f49 22be
00000310: 49f6 8a3f 0f2b ad3f 88b0 3c40 199b 83bf
00000320: 34a0 6bbf a7c2 143f f32a 2640 8c48 64bf
00000330: c48b 70c0 8e6b f23f e4db 1e3f 98f6 aa3e
00000340: 48aa 4cbf 9ec3 3ebf a1ff dd3e 4c4a 313f
00000350: b178 f23f f923 a7be 6631 623e c9c0 83bf
00000360: ab64 ae3f 626b 023f 2c92 0f3f 942c c7bf
00000370: bc88 adbf 076a 39bf ffe0 fabf 3b69 f03f
00000380: 34ce b9bf 9335 07c0 4e2d e83f e648 0c40
00000390: f5e4 bcbf c76a a0bf 9252 b73e 6421 bcbf
000003a0: 8c55 e73f 898e d73f fa7d 99bf f474 1a40
000003b0: 8e62 19bf f394 203f beb4 dc3f b02e 61be
000003c0: bc3b 78bf b3a8 7cbf 1db0 a03e 02f2 95bd
000003d0: cb5c d1bf 350b c2be 816b 293f 063d ac3f
000003e0: 3592 52c0 de92 51bf 7caa a03f 0cac 2c3f
000003f0: e7e0 f43f a673 1640 777d 94be 2afc 5c3f
3.09815 2.5730112 -2.6172678 0.09727344 -0.05675415 1.1134287 -3.147076 -3.5485237
5.0888934 3.9262483 -0.7910196 -2.4008808 5.9781165 1.3793727 7.1696587 1.8794203
-0.7710711 3.9642487 -1.0011103 0.57634 -0.009349067 3.191641 1.1046671 -0.15574244
1.5720311 1.3398907 -1.175295 1.6253225 1.5566536 -0.4917995 -0.54459226 -4.750226
2.229685 2.1280236 0.18228655 -7.682547 1.0606954 1.9487942 4.282579 0.43829694
0.9550825 0.43765894 -0.9451288 0.6340974 -1.5769618 -1.922177 2.8487468 -0.64709985
-3.6205416 1.9669738 -2.740728 -4.524317 -2.614136 3.0052273 -0.79440606 0.4134104
1.5536033 0.030496245 1.873152 -5.45257 0.22257414 0.8272115 -2.6246107 -0.27413416
-1.8620994 4.33551 -5.3221793 1.1331983 -2.3172805 -3.1264555 -1.2828795 2.936085
-0.08359883 -1.9117602 1.6304185 -1.2040981 1.0186058 1.588524 0.082793154 1.6794282
-1.4354717 2.95592 -2.0978422 3.2141435 -0.94201094 -1.9259984 3.3158057 -1.5567942
-0.6625352 -1.5341212 3.047858 -7.110785e-05 2.9202619 -1.4737828 1.193876 2.3891633
0.6654542 4.2502465 -0.5959026 0.4522647 1.1162846 1.9370569 -2.1720982 -1.3221064
-2.5471911 -0.1903664 2.3640356 1.2081071 4.5430565 0.18823752 0.29863757 0.2614266
2.2523105 -3.285119 -3.9930687 8.22527 1.2065225 1.9788399 0.64889425 2.2285094
-0.43338174 -7.483175 3.2379246 0.8230751 -1.6343567 0.48964018 -0.48920137 -2.6246564
-0.17286514 4.1838403 1.5421396 0.4780644 1.3622763 1.2398707 3.3041422 -2.2640114
0.48808983 -1.9319745 1.5891136 0.92684525 4.06445 3.155256 1.3101685 -3.7027206
1.5825927 -2.5031865 -4.8269134 1.4151154 -0.5690318 -0.51358795 1.6927253 0.79973376
-1.8016632 -0.5945468 -1.416559 3.1523879 0.2211624 1.1404798 0.9120798 0.061914425
0.11423638 0.36928686 -0.16654457 0.1537334 2.7359505 -1.932406 1.5357277 5.4266605
2.5197601 5.549024 3.1137707 -1.9520267 -2.2639928 -1.695841 3.8473098 0.059595592
2.230146 2.3354096 0.007536811 3.9393997 2.0248225 -1.443728 -1.0653588 -1.9674509
1.4057004 3.3256233 1.4509968 -4.0833707 0.5429218 3.182205 2.1012313 -4.4039335
-3.7423391 0.09772545 -3.8435497 -0.1584823 1.085641 1.3528765 2.9482746 -1.0281707
-0.92041326 0.58109516 2.5963714 -0.891732 -3.7585306 1.8939073 0.62054276 0.3339126
-0.7994733 -0.7451724 0.43359092 0.69253993 1.8943082 -0.32644632 0.22089157 -1.0293208
1.3624471 0.50945103 0.56082416 -1.5560479 -1.3557353 -0.7242741 -1.9599913 1.8782114
-1.4516053 -2.112645 1.8138826 2.1919494 -1.4757372 -1.2532586 0.35805184 -1.469769
1.8072982 1.6840373 -1.199157 2.4133883 -0.5991601 0.6272728 1.7242658 -0.21990466
-0.9696615 -0.98694915 0.31384364 -0.0732155 -1.6356443 -0.37899175 0.6617966 1.3456123
-3.2901738 -0.81864727 1.2552028 0.6745002 1.9131135 2.3508086 -0.29001972 0.8632227

weight_hh_l1 f4 [300, 100]
00000000: 0c8c 57bf 1005 61c0 9a6d 06bf 2a8d d4be
00000010: 6891 47c0 4f66 bb40 d2d0 03c0 ee6a 4c3f
00000020: 1012 823f 3854 debd e7ad 37bf 1523 cf3f
00000030: 405c 393f 7a92 0a40 42b7 8d3e ddc2 763f
00000040: 8258 51be 3a31 1fbf a020 d53f c3f3 933f
00000050: e7b7 df3f f79b cfbe 0285 013f 937f d5bf
00000060: edb9 6dbf 282f 9b3f fada 1240 5a49 8ebd
00000070: 8423 0ebf 56bc 1ec0 05d7 11bf 346c 8d40
00000080: 9481 aa3f dbd9 27c0 8638 25bf 9a9e 2740
00000090: 67e0 0440 1601 6cc0 741d da3f 915f 9c3f
000000a0: 4a63 d0bf 513e e8bd b366 e23e 8f5a 6940
000000b0: 541a a83f b1e7 b73e f3fa 2cc0 a37b 3a40
000000c0: 7e34 933f 1403 523f 481d c2be 1647 fc3c
000000d0: 197b 31bf 2100 43bf 74ee 2d40 dd69 f0bf
000000e0: 54bd c3be 2479 83bf 14ac 7cbe 4d8a dabe
000000f0: e357 a9be 7f51 8abf 20c0 cebf 6efa 2b3f
00000100: cf00 24bf c6b0 2ebf 7719 b7be aa2c 9d3f
00000110: c8b8 7e40 2fc4 533f a735 553f 365e 5ebe
00000120: 74a6 42c0 5ed4 9cbd 607f ff3e eff1 3ec0
00000130: ad08 853c 385b 713e b603 3d40 efb3 51bf
00000140: 99bf 443f cb0f 573d a54e 813f db31 cebf
00000150: a805 4ac0 046b d63f 2d90 5bc0 a053 d1bf
00000160: a201 1bbf 3675 8140 cb9b 5d40 8c98 2fc0
00000170: 42e5 23bf 724f 73be 9ff6 0d40 0cc0 113f
00000180: 29da edbf 331a b9be 742f 8640 2657 03be
00000190: 075f 2e3f b943 ccbf 2a23 fcbd b3ee 5d3f
000001a0: 62da f9bf 2f7a 883f 2b54 7dc0 3591 8c3f
000001b0: 2523 f4bf 1112 653f 339c 42c0 471f 8f3f
000001c0: 05ff 25bf cbf3 1c3f bb79 bdbf 92cd 2940
000001d0: 1d1c d03d 742d a4bf 7255 9fbe 04a7 1340
000001e0: 9c18 93bf 33f8 ed3f 814b 833d 3c4d 913f
000001f0: 58e4 19c0 a778 913f 0a09 1040 c9fb 2d3f
00000200: 4812 a53e 0aa2 2ec0 7c4a 41bf 1a7d 023f
00000210: 2fe9 5dbe 19ca 20bc 42be 60bf 5840 3840
00000220: db18 a6bf e8bb 3b40 be53 2540 bcab 1440
00000230: 700e 453f 860b 11bf e058 7640 fc47 95c0
00000240: ee67 c2be e924 313f 0a03 dabf 5b11 d63f
00000250: ad61 e53f f041 3fc0 0d82 f13f 0f5a 43bf
00000260: 954a 4d40 cbbe 0740 eb74 253e d9df 98bf
00000270: 39c0 f83f 508f a3bf a22a 843f 5da5 cfbe
00000280: 0508 45bc 7e22 bdbf 32be 5fbf 93ee 52bf
00000290: b73e 723e e283 973f 7a63 84bf bf2f 993e
000002a0: d068 23c0 d8e0 7abf b59e 8340 f492 4abf
000002b0: d374 0dc0 8f8e 81be 5e04 eabd 3823 923f
000002c0: de2f 16c0 a414 10bf 9fa5 c3bf ca58 f53d
000002d0: d063 fd3f 842a fdbe afb6 04be 025f 213e
000002e0: f433 d33e f93f ef3e 95f3 2abf 9a1b 96bd
000002f0: 0144 8cbf 7581 c73f 4fe5 12c0 b587 493d
00000300: 5d04 26bf adb7 a33f 0264 a73e 4462 8e3e
00000310: 84d0 a33f a6ea 1840 9365 a43f 6731 4dc0
00000320: a79c 6a3f 85b1 e13f 4485 29bf 9f5b 0240
00000330: 8a78 e03e 0962 18be b9e2 883f d263 343f
00000340: 0c9e 133f 7203 03c0 2e65 a0bf bb93 64be
00000350: 6e6d 2840 5681 f2be e3e8 e2bf f996 5940
00000360: 610d e53f 55db ef3f c09c 0bbe f063 f23f
00000370: c2cf e63f 994e 0e40 38d6 ad3d 8bea 763f
00000380: e387 823f edab 803f 00c7 3ac0 a023 b8bf
00000390: 62e3 0740 cfa4 003f f4f5 fcbf fcc8 243f
000003a0: 311c f23e 416c cebf 4ea9 fdbf d738 7c3f
000003b0: 3de8 1e40 1d2f 20bf 0eb8 0c40 7d9e a3bf
000003c0: 7b78 cf3f bce8 18c0 9087 37bf e4b3 9bbf
000003d0: 7450 1cc0 a02e fc3f f1c0 1e40 b9fc bdbe
000003e0: 8ea8 b33f 7bc6 bdbf 8294 2340 338f 243f
000003f0: 2597 87c0 bb7c c23f 492d a6c0 3e10 1a3f
-0.8419807 -3.515934 -0.5251099 -0.4151395 -3.11825 5.856239 -2.0596204 0.7985066
1.0161762 -0.10855907 -0.7174973 1.6182581 0.7240639 2.1651902 0.27678877 0.9639109
-0.2044392 -0.6218449 1.6650581 1.1558765 1.7477998 -0.4054868 0.5059358 -1.6679558
-0.92861825 1.2123766 2.2946153 -0.069475845 -0.5552294 -2.480245 -0.5696872 4.4194584
1.3320794 -2.6226718 -0.6453937 2.6190553 2.0761964 -3.6875663 1.7040238 1.2216665
-1.6280301 -0.11340011 0.44218978 3.6461523 1.3133035 0.35918954 -2.7028167 2.9137962
1.1500394 0.82035947 -0.37912965 0.030795615 -0.6932846 -0.7617207 2.717679 -1.8782307
-0.38230383 -1.0271344 -0.24675018 -0.4268364 -0.33074865 -1.0806121 -1.6152382 0.67179
-0.64063734 -0.68238485 -0.35761616 1.2279255 3.9800282 0.8272123 0.8328499 -0.21715626
-3.0414095 -0.07657693 0.49901867 -2.9835165 0.016239488 0.23569953 2.9533515 -0.8191518
0.76854855 0.052505296 1.0102125 -1.6108965 -3.1565952 1.6751409 -3.4306748 -1.6353645
-0.60549366 4.045558 3.4626338 -2.7436857 -0.64021695 -0.23760775 2.2181776 0.56933665
-1.8582202 -0.361528 4.1932926 -0.12826213 0.6811375 -1.5958167 -0.123113945 0.8669235
-1.951977 1.0662287 -3.9582622 1.0981814 -1.9073225 0.8948069 -3.0407836 1.118142
-0.64842254 0.613095 -1.4802774 2.653172 0.10161612 -1.2826371 -0.31119877 2.3070688
-1.1491885 1.8591369 0.064108856 1.1351695 -2.404562 1.1364945 2.2505517 0.6796232
0.3224051 -2.72864 -0.7550428 0.5097214 -0.21670984 -0.009813809 -0.8779031 2.8789272
-1.2976335 2.933344 2.5832362 2.3229818 0.76975155 -0.5665821 3.8491745 -4.665037
-0.37969917 0.69196945 -1.7032177 1.6724046 1.7920433 -2.9883995 1.8867813 -0.76309294
3.2076771 2.12102 0.16157882 -1.1943313 1.9433662 -1.277811 1.032551 -0.4055585
-0.012025838 -1.4776151 -0.8739959 -0.82395285 0.23656736 1.1837122 -1.0342858 0.2991924
-2.5532722 -0.97999334 4.1131234 -0.7913048 -2.2102554 -0.25304076 -0.11426614 1.1416998
-2.3466716 -0.56281495 -1.5284919 0.11979826 1.9796085 -0.494465 -0.12960313 0.15758899
0.41250575 0.46728495 -0.66777927 -0.07329483 -1.0958253 1.5586382 -2.295246 0.049201686
-0.6485041 1.2790428 0.32693487 0.27809346 1.2798009 2.3893218 1.2843498 -3.2061403
0.9164528 1.76323 -0.6621897 2.036842 0.43841964 -0.14881147 1.069419 0.70464814
0.57663035 -2.0470853 -1.2530878 -0.2232198 2.631679 -0.473643 -1.7727321 3.3998396
1.7894708 1.873881 -0.13634014 1.8936749 1.8032153 2.2235472 0.084881246 0.96451634
1.0197719 1.0052468 -2.918396 -1.4385872 2.1232533 0.5025148 -1.9762559 0.6436918
0.47287133 -1.6126786 -1.9817293 0.9852423 2.4829247 -0.6257189 2.1987338 -1.2782742
1.6208643 -2.389205 -0.71691227 -1.2164273 -2.4424105 1.9701729 2.4805262 -0.37106875
1.4035814 -1.4826196 2.5559392 0.64281005 -4.2372003 1.5194315 -5.193028 0.60181034

bias_ih_l1 f4 [300]
00000000: 439b 21bf 1c12 80bf 84bf 02c0 97ef c83e
00000010: 6c9e d3bf fc4b 013f bed8 8fbf 56d4 15c0
00000020: 9bc8 efbe 2d2c 72bf 9ee0 2fbf ead2 983e
00000030: ea0c 13bf 0c13 c6be f0d5 2240 f058 9f3e
00000040: 0652 2740 17a6 5e3f dd40 b73f 09de 4340
00000050: cd19 05be c593 583f ed24 28bf a12c fe3d
00000060: 36ce 07bf 5d1e 693e fc8a 9d3f ad12 3240
00000070: 34da 203f 90d5 a3bf 4381 b43f e700 a63f
00000080: a851 2dc0 2983 713f b5a3 cabf 3604 78bf
00000090: 124b 0940 2d21 17bf 3ae3 ab3f 22ec 72bf
000000a0: 5b81 77bf 73e4 a9bd 055f abbe fd1c aa3f
000000b0: 3b54 90bf be8a 5f40 ebd7 a2bd a920 95bf
000000c0: 7398 cdbf 8ef3 bbbe 9955 cf3f cb54 f1bd
000000d0: d8fd a0bf 0cb2 21bf 5410 72bf 3fd3 13bf
000000e0: c9dd 873f 2d6f eabd 3481 3bbf 2cf0 923f
000000f0: 89f3 3ebe e0fd 1abe 5bd5 663f f7d4 8dbf
00000100: e6c6 9ebe 1812 56bd 7908 2040 db59 bcbe
00000110: 5c1e 7ebf 53df bbbf ee0d 7fbf 76d9 b4bf
00000120: bc72 233f 9cb5 61bf 7969 e1bd cdda 45bf
00000130: 5520 323f a8fd 80bf 456a 673f fb66 06c0
00000140: 0342 35bf 45e6 0340 88c7 b4bd 08e0 443f
00000150: ce97 92bf f372 933c ce0b 893e 5508 b2be
00000160: d048 463f c4ed 8cbf 8ed6 1f3f bd5b b0be
00000170: 6f22 3540 2f07 86be f86f 0ac0 edf2 5e3f
00000180: 0dd7 b4be e565 fabe 2200 a7bf 7df2 bb3d
00000190: 417d 85bf 023e 44bf 5bb6 11c0 bdfa 49c0
000001a0: 6dca 14bf ca9b 3b3d 5b3a f03e e354 2dbf
000001b0: ad0b d7be d2c6 1fc0 d910 553f 5ff3 a6bf
000001c0: 18a9 1cc0 e7b6 883f e586 81c0 f4dc 27bf
000001d0: 2708 98c0 c183 d7bf 444d 15c0 3df0 b7bf
000001e0: 9980 95bf 4b82 37c0 c2e4 0dc0 b4ef f7bf
000001f0: 5be3 c6be 10d7 12c0 96c2 59bd 9e74 ccbf
00000200: 22b6 34be f509 7bbf a9c8 21c0 83a7 acbf
00000210: 31f5 75c0 bbea 3fc0 828c 123e 5485 2fbf
00000220: 17f3 61c0 07dc 1bc0 6765 c8bf e282 6f3f
00000230: c0f8 56bd 856f a43e ea44 47bf 4b57 ec3e
00000240: b943 09c0 c19d 88c0 4163 08c0 0623 3abe
00000250: a198 9cbf 5055 82c0 d08e 0140 6983 eabf
00000260: d956 65bf c124 9ebf bf0e e2bf 8f27 02c0
00000270: 70d1 35c0 46e2 efbf e68e 4cc0 d869 7abf
00000280: f3f9 f3be 834c 0ac0 97e9 4dc0 11b8 9bbf
00000290: f64a 0dc0 c7aa 17c0 82d1 9ec0 ab8e eb3f
000002a0: f8d6 d6be f9cb 0ec0 da1e f4bf 9992 85be
000002b0: df1b 3abf ea56 50bf d077 bfbf baac 26bf
000002c0: 96b3 0bbf bb96 cebe 1206 dabf 1b7a e23e
000002d0: e803 6bbe 77cf f7bf be25 bfbf eb1a 5bc0
000002e0: 25ed 8a3f 34f8 09c0 c307 09c0 1b3c 793c
000002f0: 3167 33c0 3899 9fbf 4d2c 43c0 fbb2 febf
00000300: 5707 2e3f 737d 0fc0 cd19 02c0 4e6c 4dbc
00000310: 0799 09bf 6de8 77c0 d687 fbbf 3438 91c0
00000320: 2136 f73f 75e9 d43d 78a7 d63f c3ab 8cc0
00000330: 6729 dc3f 40de 3240 1f28 6fbe 7392 0e40
00000340: 50ae 12bf 28e3 a2bf a6b9 db3f f325 8bbf
00000350: b06a 783f b6af 4dbe 7069 a840 ce8c 36bf
00000360: afc5 5ec0 111f 77c0 6e81 5740 f9fe 31c0
00000370: 0c65 52bf f774 61c0 add5 1040 9d6d 95bf
00000380: 5b25 dbbf 8cb1 b1c0 af4a a43e f969 ae40
00000390: 4d64 71c0 5de3 8abf 46d7 1b40 6761 39c0
000003a0: 4af2 f23e ec31 2f40 8195 cc3f 21a9 64bc
000003b0: b926 5fc0 d0d0 18bf 8478 91c0 4763 4bbe
000003c0: af83 63bf 42c6 0940 4752 a53e 86b6 003f
000003d0: 8907 8d40 4589 9ac0 d86f aabf d100 fbbf
000003e0: dc91 bbbe bc08 a740 3014 b7bf adf4 90bf
000003f0: 1140 af3e f4b1 bebf 20a0 0340 651e 84bf
-0.63127536 -1.0005527 -2.0429392 0.39245293 -1.6532722 0.5050657 -1.123802 -2.341085
-0.46832737 -0.94598657 -0.68702114 0.29848415 -0.5744158 -0.38686407 2.5443077 0.3112254
2.6143813 0.86972183 1.431667 3.060427 -0.12998123 0.8460048 -0.65681344 0.12410856
-0.5304903 0.22765489 1.230804 2.7823899 0.6283295 -1.2799549 1.4101948 1.2969025
-2.708109 0.9434076 -1.583121 -0.96881425 2.145207 -0.59035 1.3428719 -0.9489156
-0.96681756 -0.08295526 -0.33470932 1.3290097 -1.1275705 3.4928432 -0.07951339 -1.1650592
-1.6062149 -0.36709255 1.6197997 -0.11783751 -1.2577467 -0.631623 -0.94556165 -0.5774421
1.0614558 -0.11446986 -0.73244023 1.1479545 -0.18647589 -0.15135908 0.90169305 -1.1080617
-0.31011122 -0.05226335 2.5005171 -0.36787304 -0.99265075 -1.4677528 -0.9963063 -1.4128864
0.63846946 -0.8816774 -0.110064454 -0.7728699 0.69580585 -1.007741 0.9039653 -2.1000354
-0.7080385 2.0609295 -0.0882712 0.76904345 -1.1452577 0.017999148 0.2676682 -0.34771982
0.77454853 -1.101006 0.6243676 -0.3444499 2.8302267 -0.26177356 -2.163084 0.87089425
-0.3532032 -0.48905864 -1.3046916 0.0917711 -1.042885 -0.76657116 -2.276755 -3.1559289
-0.5812138 0.04580287 0.46919522 -0.6770765 -0.42001095 -2.49651 0.8322883 -1.3043021
-2.4478207 1.0680817 -4.0477166 -0.6557152 -4.750995 -1.6837083 -2.332841 -1.437019
-1.167987 -2.8673275 -2.2170873 -1.9370027 -0.38845333 -2.2943764 -0.053164087 -1.5973089
-0.17647603 -0.9806207 -2.5278723 -1.348862 -3.8430903 -2.9987018 0.14311412 -0.6856282
-3.530462 -2.4353044 -1.5655946 0.93559086 -0.05248332 0.32116333 -0.7783953 0.4616035
-2.1447585 -4.269257 -2.131058 -0.18177423 -1.2234079 -4.072914 2.0243416 -1.8321353
-0.89585644 -1.2354966 -1.766075 -2.0336645 -2.840908 -1.8740928 -3.1962218 -0.97817755
-0.47651634 -2.16092 -3.2173822 -1.2165548 -2.2077003 -2.3697984 -4.9630747 1.8402914
-0.41960883 -2.2311995 -1.9071915 -0.26088408 -0.7269878 -0.8138262 -1.4958439 -0.6510731
-0.545709 -0.40349373 -1.7033103 0.44233784 -0.22950709 -1.9360188 -1.4933393 -3.423518
1.0853621 -2.155774 -2.1410987 0.015212084 -2.8031733 -1.2468634 -3.049579 -1.989837
0.6797995 -2.2420318 -2.0328248 -0.012538029 -0.53749126 -3.8735611 -1.9650829 -4.5381107
1.9313394 0.10396091 1.6769857 -4.395967 1.7200135 2.794815 -0.23355149 2.2276886
-0.5729723 -1.2725573 1.716603 -1.0870956 0.9703779 -0.2008656 5.262871 -0.713086
-3.4808156 -3.8612711 3.3672748 -2.7811873 -0.82185435 -3.522764 2.2630417 -1.1674076
-1.7120775 -5.552923 0.3208823 5.450436 -3.7717469 -1.0850636 2.4350142 -2.89657
0.47450477 2.737422 1.5983125 -0.013956339 -3.4867384 -0.5969362 -4.5459614 -0.1986209
-0.8887281 2.1527257 0.32289335 0.5027851 4.40717 -4.8292565 -1.3315382 -1.9609624
-0.3663472 5.219816 -1.4303036 -1.1324669 0.34228566 -1.4898057 2.0566483 -1.0321776
