models/cornellmovielin_GRU_NE4098_NL2_HS100.pt (torch_old, 582557 bytes, 11 tensors)

weight f4 [100, 100]
00000000: 2562 f13f 6f4d 6ebf 7854 38be c8f7 fc3f
00000010: a39c 6e3f fcf6 babf 7cc5 793f e003 143c
00000020: e849 0dbf 799c b33e e59d f9bc a8b0 23bf
00000030: c02c cbbe 1a4d 90bf 476b 9abd eb84 823e
00000040: 95db e6be 0450 bdbf 0618 66be 4026 6f3f
00000050: 0525 a93d eca2 b3bf 4702 dbbe f7f3 b7bf
00000060: 3760 2ac0 9fba c33c dabd 4c3c cf42 b8bf
00000070: da2b aebb be8a b3be abfd 74bc b62c 4e3e
00000080: 3bbc a03f 9771 6fbf 17d7 d4be b558 e83f
00000090: 8d1f 49c0 1808 18c0 b55a dcbf ecba 503e
000000a0: 04ea efbe 4d9e cb3e 909e 403f 012e 123f
000000b0: 530f 1cbf 1a28 583f 2e4d 053f 95a7 633f
000000c0: cea4 5dbf d1e9 b5bf b9b1 f13f 5370 a9be
000000d0: c8b1 483e dd3b 02c0 276e 5d3f b058 973d
000000e0: b720 613f 71d6 12c0 35f9 23bf 6e55 803f
000000f0: 676c 64bd 8aa9 8abf d230 9b3f b6e9 76bf
00000100: 43b2 c33f b3b5 9abe 2902 c23f 8afd 71c0
00000110: 0ae1 2f3f e52e 55bd 1a7b b3bf 4aeb db3e
00000120: e5a9 49be a25e 9ebf 5b3f 85c0 0b01 2ebf
00000130: 6e55 0cbf 0dd0 8b3f db0c 21c0 5350 0e3f
00000140: b9da 8dbf 3247 30bf f171 a0bf f840 03bd
00000150: 0bed 8fbf 1c3c 87be 2b2a 98be a2e4 5ebf
00000160: 285a 6abe b864 d6bf 9feb d4bf d727 0ebe
00000170: 08d3 abbf cd68 013f 6726 96bf 3d1d cebf
00000180: edfd a6be 3ed7 8abd 8225 cabe 012b 1dbf
00000190: 3721 923f 1d46 18be 9fd6 4fbf c4ea 983f
000001a0: bd29 bb3f 6b70 cd3f feca 27bc c0fe c7bf
000001b0: 4f65 193f dffc 1bc0 3894 1340 0cf1 563f
000001c0: 2fe3 c5bf b374 893f 5ebe 323e f8c2 0abf
000001d0: c05b 843f 90ad 18c0 eb70 953f 42d2 dc3f
000001e0: 501f a9bf 602a ab3f 0033 eabf e3ab a7bf
000001f0: d4a3 613e 3d26 9f3f 294d 0fc0 3a18 3b3e
00000200: b97a 1ebf 7159 843f 7997 04c0 287c 39bf
00000210: 0314 e63e 7a7e debf dace f23d 5439 663d
00000220: b4f7 7bbf 2404 24bf 1aa0 12c0 2509 243f
00000230: 2bc9 dd3e 9d15 833f aea0 1bbf 447e bd3d
00000240: 336f f1be a1fb 623e e5b3 38c0 ac54 e03e
00000250: 47dd cb3e 69f7 a7bf 4358 093f 51f9 0ec0
00000260: a783 2040 cc8b f5bf a89d 8b3f 16ca 52be
00000270: 491d e03d 5f43 3ac0 dd0a 323f dbb5 db3f
00000280: 9763 c5be 8385 9ebe 0f6c af3f 84ed 973f
00000290: 3158 76bf 6d23 0a3f 8878 b0bf f510 e7bd
000002a0: 284a 8cbf a966 46bf 9670 9cbe d812 d0be
000002b0: 69ea 6bbf 73b3 0640 e4a7 f13e c683 063f
000002c0: 5116 e43f fee8 05c0 e78b 48bf 9601 11bf
000002d0: 1795 e83f ee64 a6bf 12c0 723d 686f 34bf
000002e0: a2ae fe3e 142a 82bf 6cab cfbe f4d3 3b3f
000002f0: 4df0 5ebf 3e36 11be 490d 9cbf 45c7 963f
00000300: 52e9 6abf e89e e03f 5d84 2a40 c766 7dbf
00000310: 837d 7ebf c0af b9bf 0891 82bf 2002 813f
00000320: c8e5 2ebe a1ec c23e e26c 18c0 9c28 82bf
00000330: 3fd9 88bf 56d3 8cbf 24bc 1840 d350 4cbf
00000340: e69d ac3f fd7a b83e e8cd f83e e78e 973f
00000350: a2a6 52bf e76f 24bf ccab 6c3e b807 983e
00000360: bfbb 02bf b857 3fc0 e19f 54bf e787 dc3f
00000370: 6a0e dcbd 54c2 65bc 3784 52be bab2 fe3f
00000380: 90c3 d2be 5a95 d3be 41ba bc3d 08bd 043f
00000390: b6d0 a0bf 38b7 5d3f 0668 453f 2054 88c0
000003a0: de49 0a40 f279 3cbf 6862 7f3f 8f1f 40bf
000003b0: 6bd2 84bf 341d 1f3f 60fa cdbf f973 c43f
000003c0: 216c 023f 53db d3be 5b80 a13e 8789 aa3f
000003d0: 5e72 19bf 3b4d 233f ae84 c6be 88cc b13e
000003e0: 437b b53f 852a c7be 7c43 353f 88c1 a7bf
000003f0: 784e 0140 403c b43e 60bf 3c40 4595 a33f
1.8858076 -0.93086904 -0.18000972 1.9763117 0.9320776 -1.4606624 0.9756696 0.009034127
-0.55190897 0.35080317 -0.030470798 -0.6394143 -0.3968258 -1.127353 -0.07539993 0.25492033
-0.45089403 -1.4790044 -0.22470102 0.9341774 0.08259014 -1.4034095 -0.42775175 -1.4371327
-2.6621225 0.023892699 0.012496436 -1.4395388 -0.005315286 -0.3506679 -0.014953057 0.20134243
1.2557443 -0.935327 -0.4157035 1.8152071 -3.1425507 -2.375494 -1.7215182 0.20383805
-0.46858227 0.3976921 0.7524195 0.57101446 -0.6096088 0.8443619 0.5207089 0.88927585
-0.86579597 -1.421198 1.8882362 -0.3309351 0.19599068 -2.0349038 0.86496204 0.07389963
0.87940544 -2.2943385 -0.64052135 1.0026071 -0.055767443 -1.0832989 1.2124274 -0.96450365
1.5288776 -0.3021675 1.5156909 -3.7810998 0.6870276 -0.052046675 -1.4021943 0.4295295
-0.19693716 -1.237263 -4.163984 -0.6797034 -0.54817855 1.0922867 -2.5164096 0.55591315
-1.1082374 -0.68858635 -1.2534772 -0.03204438 -1.1244215 -0.26413047 -0.29719672 -0.87067616
-0.22885954 -1.6749487 -1.6634406 -0.13882385 -1.3423777 0.5055054 -1.173047 -1.6102673
-0.32615605 -0.067793354 -0.3948174 -0.61393744 1.1416386 -0.14870496 -0.8118686 1.1946645
1.4622113 1.6049932 -0.010241268 -1.5624619 0.5992021 -2.437309 2.3059216 0.8396156
-1.5459956 1.0738739 0.17455432 -0.5420375 1.03405 -2.3855934 1.1675085 1.7251666
-1.3212681 1.3372307 -1.8296814 -1.3099331 0.22035152 1.2433544 -2.2390845 0.1827096
-0.6190601 1.0339795 -2.0717452 -0.7245507 0.44937143 -1.7382348 0.1185586 0.056207016
-0.9842484 -0.6406882 -2.2910218 0.64076453 0.4331754 1.0240971 -0.6079205 0.09252599
-0.4715515 0.22166301 -2.88598 0.438146 0.3981726 -1.3122379 0.536503 -2.233967
2.5080354 -1.9183288 1.0907488 -0.20584902 0.10943086 -2.910362 0.69547826 1.7164873
-0.38552544 -0.30961236 1.3704852 1.1869359 -0.9622832 0.53960305 -1.3786783 -0.11282531
-1.0960131 -0.77500397 -0.30554646 -0.40639377 -0.92154557 2.1047027 0.47198403 0.5254482
1.781931 -2.0923457 -0.78338474 -0.56643045 1.8170499 -1.2999551 0.059265204 -0.7048249
0.4974261 -1.0169091 -0.40560472 0.7337029 -0.8708542 -0.14180848 -1.2191554 1.1779562
-0.9176227 1.7548494 2.6643288 -0.9898495 -0.99410266 -1.450676 -1.020051 1.0078773
-0.17079842 0.3807116 -2.3816457 -1.0168643 -1.0691298 -1.1001995 2.3864832 -0.7981083
1.3485687 0.36031333 0.48594594 1.1840485 -0.8228551 -0.6423325 0.2311241 0.2969339
-0.5106773 -2.989729 -0.83056456 1.7228974 -0.10744937 -0.014023382 -0.20558248 1.9898293
-0.41164827 -0.41324884 0.092152126 0.5185094 -1.2563694 0.86607695 0.7711185 -4.260269
2.1607585 -0.73623574 0.9975953 -0.75048155 -1.0376714 0.62153935 -1.6092033 1.5347892
0.5094624 -0.4137827 0.3154324 1.332322 -0.59940135 0.6378972 -0.38773102 0.34726357
1.4178241 -0.38899627 0.708061 -1.3105936 2.0204144 0.35202217 2.9491806 1.2779928

weight_ih_l0 f4 [300, 100]
00000000: 3125 e6bd 2e62 f7be afbe d43d 4807 5e3f
00000010: 78b3 c3be 8e70 af3c 06d2 25bf b490 8d3d
00000020: c1dc ae3e 20b9 f9bd c8a4 95bf 4489 52bf
00000030: ffd8 74bf a61a 243f 7ff8 e1be 98a4 72bf
00000040: 0ddc 033e b4ae 82bf 2596 92bf d161 57bf
00000050: 3ecc 503f b204 553e d6d5 49bf a522 d8bc
00000060: 82d8 c03e c5aa 143c b988 f1be e8fb edbf
00000070: 6229 51be a134 263e 4c7e ad3e a684 163e
00000080: 2522 043f 3f19 02be d139 69bf 32c7 443e
00000090: 27cd d2be 2ba0 19be 540d 463e b14f 3fbf
000000a0: b746 4cbe bbb5 edbe c592 1cbf 7de7 03c0
000000b0: 2e1d a53d dd02 23bd ced5 1fbe eb59 0e3f
000000c0: d8d6 f73d 6fb2 da3d bae5 c7bf 5feb 31be
000000d0: c9bb ccbe f19b 8d3f 338e 60bf 7b4d e7be
000000e0: 5d81 5ebe 6523 0f3f b21f 78bf d41f 0abf
000000f0: 99fd b13d a9cb 0c3f 3b8a 3cbd 1c0e d9be
00000100: abd6 54be dfd8 89bf a875 a03f 2f9a 4b3f
00000110: d0be 25bd 49c3 053f 3c2b 3f3f d22b 0f3f
00000120: 9139 4dbd 130f 89bd 5f10 47be 94b4 4c3e
00000130: cb65 203f a50e f73e 78a0 363e b418 58bf
00000140: 48d8 543f b205 f5be 939a 9dbe 046f 7b3e
00000150: c964 a1bf cb04 773f 641e 36bf 8dc4 a03d
00000160: 641b efbd 39a3 c53e 01e0 4dbf c287 84bb
00000170: ae01 a23f 24ee e8bd 9207 77bd c1a4 253f
00000180: c1e2 1fbf 560b 7a3b 880a 63be 063e 5cbf
00000190: c6aa 853f 2450 ccbe 0dbf 83be 160c 11bf
000001a0: 6e06 a0be 4094 7f3f 14cc 34be 1e0b 0c3f
000001b0: 02c1 023d 86bd b93d 7000 b3bd 1cdc 2b3e
000001c0: 8677 c0be f484 debe 79ab 96bf 10fb 14be
000001d0: 7c5c 10bd 7e9b 1fbe 08ed a03b f0e9 743f
000001e0: 113a 653f 1631 473f 4bfb 9d3e 00f5 863f
000001f0: 6f82 ebbe 315a 693f 2483 e43b f99d 343e
00000200: 0181 cf3e 0892 1c3e 15df b43e c99b d2be
00000210: be88 45bf 4f8d 8bbe beac 1fbe 6f0a 15bf
00000220: 1355 eabd e53d 2ebf 630b 84bf c47c d3be
00000230: 213a 5c3f 5fc6 e5be 2646 42bd f55e 3abf
00000240: fcf1 28bf 5406 96bf 6c2a 523f 7a89 75be
00000250: 8880 c83d c70d 983d b501 6a3d 1114 933e
00000260: 392f d4bd 9e0f 83be 84ee 13bf 8cfd 50be
00000270: e445 2b3f d602 89bf 9179 47bf ebb7 8c3e
00000280: 257c b03e e3a0 193f 258e b03e d5c0 51bf
00000290: 82c2 953e 7b45 dfbe dac7 0fbf bd39 0dbf
000002a0: 3de7 c0bd b8e4 903d b4cb cabd 92d1 a03e
000002b0: 6303 0cbe 756c 413c 16a6 2f3f 9b0e f23e
000002c0: 6e1b 03bd 521b 593f 696d d43d 8056 41bf
000002d0: 6728 92bd 04aa 2abf 8231 8ebf d1c5 823f
000002e0: c009 663d 3b5e 10bf 8408 18bf 2e66 d3be
000002f0: dbb3 99be 6e7e 4d3c 7a24 2d3f 6c68 88bf
00000300: 4be3 073e 33a1 083f 8b24 b2be 74dc 3b3f
00000310: f619 273e ab0b babf 42f5 92be 53b4 1dbf
00000320: f427 543e e80c c43e 0f04 dfbe 726b 4a3e
00000330: f318 8cbf f901 5a3f 318f 1d3f bb8c 623f
00000340: f258 b0bf 2e04 89be 3ee8 373e 7563 213f
00000350: ef6d df3d b497 97bf 15cd adbe e4e5 933f
00000360: 3259 8e3f c998 493e 27ce 2bbf f685 863f
00000370: 1647 1b3b 2be6 a23f cca4 053f a138 5a3f
00000380: 10fd 9ebf cc2b 473f 3c7d a73b c3ca 9a3f
00000390: bbc6 983f 37fc 903f 23bf 4bbe 7f04 bf3f
000003a0: 5d7d 97bf 8ff7 c8be 4ed6 93bc 9202 173f
000003b0: 3a96 b03c 38fc 6c3e cd28 4c3f 30e0 a1be
000003c0: 9e7c 19bf f9cf 3fbe d714 15bf 10fe dc3e
000003d0: d999 99be 2c22 e7be b2e8 2a3f 814d f4be
000003e0: 85ca bfbe b8ac 843e 3ff7 25bf 8c4a fc3d
000003f0: 3389 223e 3cee 563f 3f00 18bf 5349 34bc
-0.112375624 -0.48317093 0.103879325 0.8672986 -0.3822286 0.021415975 -0.64773595 0.069123656
0.34152797 -0.12193513 -1.1690912 -0.822407 -0.9564361 0.6410316 -0.441349 -0.947824
0.12876911 -1.0209565 -1.145207 -0.8413363 0.8156165 0.20802572 -0.7884191 -0.026383707
0.37665182 0.009073918 -0.47174624 -1.8592501 -0.20425943 0.16231014 0.3388542 0.14699039
0.516146 -0.12704943 -0.91103846 0.19216612 -0.41172144 -0.15002505 0.19341022 -0.74730974
-0.1994885 -0.46427712 -0.6116145 -2.061004 0.08062206 -0.039797653 -0.15608904 0.55605954
0.12101525 0.10678565 -1.5616982 -0.17374943 -0.3998702 1.1063215 -0.8771698 -0.451763
-0.21729036 0.5591338 -0.96923363 -0.53954816 0.08690948 0.5499826 -0.046030264 -0.42393577
-0.20785014 -1.0769309 1.2535906 0.7953214 -0.040465176 0.52251107 0.74675345 0.5592624
-0.050103728 -0.06692328 -0.19439839 0.1999076 0.62655324 0.4825336 0.17834651 -0.84412694
0.8314252 -0.47855908 -0.30781993 0.24554068 -1.2608882 0.9649169 -0.7114012 0.07849989
-0.11675146 0.38601092 -0.8041993 -0.004044504 1.2656763 -0.11373547 -0.060309954 0.6470452
-0.62455374 0.003815373 -0.22171986 -0.8603214 1.0442741 -0.39904892 -0.25731698 -0.56659067
-0.31254905 0.99835587 -0.17655975 0.54704463 0.031922348 0.09069352 -0.08740318 0.16783184
-0.3759119 -0.4346081 -1.1771079 -0.14548898 -0.03524445 -0.1558666 0.004911069 0.9566946
0.8954173 0.77809274 0.30855784 1.0543518 -0.4599795 0.91153246 0.006973641 0.17638387
0.4052811 0.15290082 0.35326448 -0.4113448 -0.77161777 -0.27256247 -0.1559324 -0.58219045
-0.11442008 -0.68063194 -1.0315975 -0.41306126 0.860262 -0.44877908 -0.04743018 -0.7280114
-0.6599424 -1.1720681 0.8209598 -0.23978224 0.097901404 0.07424503 0.057130534 0.28726247
-0.103605695 -0.25597852 -0.5778582 -0.2040922 0.6690352 -1.070399 -0.7791987 0.27484068
0.34469715 0.6001112 0.34483448 -0.81934863 0.2924996 -0.43607697 -0.56164324 -0.55166227
-0.09419105 0.07074875 -0.099021345 0.3140989 -0.13673167 0.011805643 0.686128 0.47276768
-0.03200858 0.8480731 0.10372431 -0.75522614 -0.071366124 -0.66665673 -1.1108859 1.0216619
0.056161642 -0.56393784 -0.59387994 -0.41288894 -0.3002003 0.01254235 0.67633784 -1.0656867
0.13270299 0.5337097 -0.34793505 0.7338326 0.16318497 -1.4534811 -0.28702742 -0.6160328
0.20718366 0.38291097 -0.43557784 0.1976755 -1.0945114 0.8515926 0.6154662 0.8849599
-1.3777144 -0.26761 0.17959687 0.63042384 0.1090964 -1.1843171 -0.33945528 1.1554532
1.112097 0.19687189 -0.6711144 1.0509632 0.0023693494 1.2726492 0.52204585 0.8524266
-1.2420979 0.77801204 0.0051113646 1.2093128 1.1935648 1.132697 -0.19897132 1.4923247
-1.1835133 -0.39251372 -0.018046524 0.58988297 0.021556009 0.23143089 0.7974976 -0.31616354
-0.59955776 -0.18731679 -0.58234924 0.43162584 -0.3000019 -0.4514326 0.66761315 -0.4771538
-0.37459198 0.25913024 -0.6483039 0.12318906 0.1587265 0.83957267 -0.59375376 -0.01100381

weight_hh_l0 f4 [300, 100]
00000000: ae0f d03e 54b8 c7be 6b36 47bf 725d e7be
00000010: 6105 27be b229 d33e f173 3c3e 657f c83f
00000020: c6de a7bf 03fc cf3d c933 a43f 06ff bcbe
00000030: 9d5a 46bf eb47 043f 3e7e f6be ebbb 833f
00000040: 7dc4 023f a25f cd3e de76 923b 288a f03e
00000050: 2164 36bf fad4 38bf 62b7 2bbf 1d79 ccbf
00000060: 5894 dc3e 5ad0 9a3f 0348 8e3f 951c 933e
00000070: dc77 a33d 86c1 073e 3435 963d 41ed fe3f
00000080: af1b c53e 9ba6 393f d715 a33e 4619 8a3f
00000090: 85b1 ba3e 9264 813f 6e46 20bf b865 da3e
000000a0: c677 03be a95e 443f 0daf d3be c976 73be
000000b0: ed91 d53e 8330 85bf e2aa bebd b7ed c1be
000000c0: 57d8 1bbf 8211 80bf b6d1 3e3f 6e83 633e
000000d0: 5533 903e 4ba2 33be 1fbf 0bbd 99af 4a3f
000000e0: a509 abbd e368 e5be b03f 21bf 2018 383e
000000f0: 0e13 033e 8e55 693f 14aa 6cbf 8002 663f
00000100: c0d3 cdbe 699e 1dbe ba37 02bf e601 cf3d
00000110: 717f 343f 4156 23be 6497 81bf 42f2 dcba
00000120: a966 a2bf db9d ddbd 5098 7d3e 8ee8 773c
00000130: 2cf4 b33f c6de 813f a2f3 2e3f ac5d b83f
00000140: 6bb3 09bf 5a5d 57bf 8014 a13f f4eb 333e
00000150: 32df 2d3f f8a7 143f 3331 083f 2d76 b63e
00000160: bac6 96bf 35c4 4b3e 3bb0 d03e 9008 02be
00000170: f4df 863f 0755 83be 68d3 d13e a990 ddbe
00000180: 6ae0 3cbf 3dbb e1bd 5cd6 79bf e57a 133f
00000190: cb9d 41be bf05 db3e ef83 32be ed01 313f
000001a0: 0919 fa3e ade9 b1be 7188 493f 71e0 10bf
000001b0: 5554 29bf 7e55 38bf f320 02bd 1ca9 b7bd
000001c0: 7371 373f 75b6 40be bc9b a4bd 338e b53f
000001d0: 4b86 693f 36f7 18be 6722 253f c8cd 07bd
000001e0: f333 aebf aac6 3c3f 4507 89be 6191 a1be
000001f0: 9b2e 5bbe 85ca 9d3e b7cc 0c3f 14de 78bf
00000200: f338 693f ee7b bcbf 1260 893f 6a48 5a3f
00000210: 417a fcbd 7d05 143e 3722 a53e 6d5a a8bf
00000220: 66b1 d4bd 9133 893e 7c87 78bf 2e7e 1cbf
00000230: 8473 bb3e 516b b23f a0e9 4dbf a981 af3e
00000240: e953 a33e 8016 d23e e696 31be 22eb 013d
00000250: c02e 483f c8a5 56bf a5db 2abf cf9c 933d
00000260: 09e1 9ebe 7b57 bc3e 42bd 0fbe 9cec 9cbf
00000270: eb00 e1be 9951 19bf 248a b93e 1aad 1cbf
00000280: b767 adbe d772 33bf e57b 0bbf f9a3 763f
00000290: 6393 9bbf 5409 81bb 2a3b 00bf f3c1 7a3f
000002a0: 83dc ac3f 1443 50bf a548 b53f 63ac 373f
000002b0: 8dc9 a5bf 5a71 41bf 61d5 c7bd 0857 adbf
000002c0: 11c9 4e3f 1d6b 34bf fb0b 1cbe 7c63 ae3f
000002d0: ac6c a03e ad29 9abf 56a6 843e 900d 533f
000002e0: e957 05bf 2003 14be 6c21 2f3d f5d5 fc3d
000002f0: f063 003f 0c3b f6be 7915 133f dd95 333e
00000300: 8633 8abf a336 51be c9ac d73e bef5 0cbf
00000310: 2c88 373f a118 94bf 5842 443e ffb7 ddbd
00000320: 1af2 383f 3c12 713f 8409 463f d2f4 933f
00000330: 5fa1 11be 58f5 8f3c eb08 9a3f fb2d 4f3f
00000340: 1e67 593e 9b2b 19c0 e474 a7bf 75f7 4abf
00000350: fc86 6b3e d1ed b2be 9974 fabe 2680 743f
00000360: 6644 8abf e436 e73e dee5 253f eaf6 cd3d
00000370: 4b12 433e 9a05 4dbf 5747 a2bf 006f 66be
00000380: 91d0 a13f 4ab8 853f 2515 e83f 3c30 4ebe
00000390: 4755 66bf 7741 043f 18a8 233f 37dd 633f
000003a0: 502c 9dbe 065b c73e 364d ba3f 1a51 dabe
000003b0: fee1 35bf 5f01 a73f da79 32bf 157a 213f
000003c0: 1a8f 47bf 0978 a0be 633d b6be 403a 023f
000003d0: 7305 9dbe bff0 7a3e 8c62 de3d 7767 d23f
000003e0: 279b 2fbf 4d55 43bf a8e3 2cbf 576a ee3c
000003f0: 3963 66bf 5ff0 663c c758 c73e ba59 343f
0.40636963 -0.3900782 -0.7781741 -0.4518848 -0.16310646 0.41242748 0.18403603 1.5663878
-1.311486 0.10155489 1.2828304 -0.36913317 -0.77482015 0.5167224 -0.4814319 1.0291723
0.5108107 0.40112025 0.0044697365 0.46980405 -0.71246535 -0.72199976 -0.67076695 -1.5974461
0.43081927 1.2094834 1.1115726 0.28732744 0.07981846 0.13257417 0.073343664 1.9916154
0.38497683 0.72519845 0.318526 1.0788963 0.36463562 1.0108817 -0.6260747 0.4265573
-0.12838659 0.7670694 -0.4134449 -0.23775782 0.41712895 -1.040543 -0.09309937 -0.37876675
-0.60876983 -1.0005343 0.74538743 0.22218105 0.28164163 -0.17542379 -0.034117814 0.7917419
-0.08351449 -0.44806585 -0.62987804 0.17977953 0.12800238 0.9114617 -0.9244702 0.89847565
-0.40200615 -0.1539246 -0.5086628 0.10107784 0.7050696 -0.15950872 -1.0124326 -0.0016856866
-1.2687579 -0.10821124 0.24765134 0.015131129 1.405889 1.014611 0.68340504 1.4403586
-0.53789395 -0.8412682 1.2584381 0.17570478 0.67918694 0.580688 0.5320007 0.35637036
-1.1779397 0.19899066 0.40759453 -0.12698579 1.0537095 -0.25650808 0.40981603 -0.4327443
-0.7377993 -0.11022041 -0.9759271 0.576094 -0.1890785 0.4277782 -0.17433141 0.69143564
0.48847225 -0.34748593 0.7872382 -0.5659247 -0.66144305 -0.7200545 -0.031769704 -0.08967802
0.71657485 -0.18819602 -0.080375165 1.4184021 0.9122054 -0.14938053 0.6450562 -0.033155233
-1.3609604 0.7374064 -0.2676336 -0.31556228 -0.21404497 0.30818573 0.5499987 -0.97213864
0.9110252 -1.472532 1.0732443 0.85266745 -0.123280056 0.14455219 0.32252666 -1.3152596
-0.103853986 0.26797155 -0.9708173 -0.61130035 0.3661157 1.3939 -0.8043461 0.3427861
0.31899956 0.4103279 -0.1734272 0.03171838 0.78196335 -0.8384671 -0.667414 0.07207643
-0.31031063 0.36785492 -0.1403704 -1.2259707 -0.43946013 -0.59890133 0.36238205 -0.6120163
-0.3386819 -0.70097107 -0.54485923 0.9634395 -1.2154354 -0.0039378796 -0.5009028 0.97952193
1.3504795 -0.81352353 1.4162794 0.71747416 -1.2952133 -0.75563586 -0.09757496 -1.3542185
0.80775553 -0.7047594 -0.15238945 1.362411 0.3133291 -1.2043968 0.25908154 0.8244257
-0.52087265 -0.14454317 0.042756483 0.123454966 0.5015249 -0.48091924 0.5745464 0.17537637
-1.0796974 -0.20430999 0.42124012 -0.5506247 0.71692157 -1.1570016 0.19165933 -0.1082611
0.7224442 0.9416845 0.7735827 1.1559088 -0.14221714 0.017573044 1.2033972 0.80929536
0.21230742 -2.3932865 -1.3082547 -0.7928384 0.23000711 -0.34947065 -0.48917082 0.9550804
-1.0802124 0.45159066 0.64803874 0.10056861 0.19049947 -0.8008667 -1.2678021 -0.2250328
1.2641774 1.0446866 1.8131453 -0.20135587 -0.8997387 0.5166239 0.63928366 0.8900942
-0.3069787 0.38936633 1.4554813 -0.4264 -0.7104796 1.3047293 -0.6971718 0.6307691
-0.7795273 -0.3134158 -0.3559371 0.5087013 -0.3066822 0.245059 0.1085864 1.6437825
-0.6859612 -0.76302034 -0.67534876 0.029103441 -0.8999515 0.014095395 0.3893492 0.7044941

bias_ih_l0 f4 [300]
00000000: b5c4 d7ba 0420 46bc 85ce b73e e866 953d
00000010: 3e8e 3bbe 617c e7be c2ef 0abf 68a2 08bf
00000020: 1a75 d0be 3f0a 29bf c9d8 113e 165a c2be
00000030: 543c 99bf fb02 a2be e997 17be 664d 10be
00000040: 7d72 333e bd99 f6bd bfb3 213e 0314 e8be
00000050: 4382 dc3e 3392 5abe 3f47 03bf cd1e a93e
00000060: 3722 12bf 54b0 443e 81c1 87bf 88bf c53e
00000070: ffb8 cabe 1e54 ef3e 096f 69be a57f 60be
00000080: 6eb2 103e fb75 21bf 4e50 af3d 11fc 1abf
00000090: 4418 bc3e 0be1 21be d93a 32bf 49be a2be
000000a0: 6feb 003e 6c7b f3be 272a f5be 5a24 cbbe
000000b0: 629c 9a3e cea4 cbbe 4146 b9be 491a dabe
000000c0: 864c a03e 1292 7dbe 3c3b b13e c96c a1be
000000d0: 8917 18bf 8609 bdba ee52 04bd c740 b8bd
000000e0: 4888 92be 0f39 c7be 8bec 70bf e4c3 263e
000000f0: b84a d63c 6048 14bf d9ca 14bf 310d b03e
00000100: ae08 bcbe fcde 60be 6b28 dbbe a22e 893d
00000110: 0e5f a9be 3025 ee3e 710a 26bf 727f f8be
00000120: 6b79 dcbd 53cc 2a3e b6fa 943e 8022 2bbf
00000130: 8a89 b8be d6e7 8f3e 9b36 e8be 4311 65bf
00000140: 71bc d6bd 0f45 4e3f 70b5 d9be 1065 72bc
00000150: d461 98be dcd4 773e 2e7c 253e 8455 5dbf
00000160: 6254 68bf 4960 3b3e 20e6 d2be d548 1bbe
00000170: 3261 2dbe 1abd f3be 13d5 7ebd c83d 17bf
00000180: ee62 073e c8b1 b53d 6775 9f3c 7ee3 87be
00000190: 85c8 4fbf 8fc2 6cbe 59be 27bf b476 33bf
000001a0: ab9a 48bf 96a2 11bf 0838 5bbf 2cbd 69bf
000001b0: c5c2 193e 22c7 debe 5544 a7be cbe5 0dbf
000001c0: 50d7 d0be 1303 b6bf 9bb0 82bf b9fe 0fbf
000001d0: d226 85be 2212 edbe a7f3 a3be fa9f 96be
000001e0: 7c63 b1bb d64a 5abe b5f0 5ebf 7900 8dbf
000001f0: e3be cebe af2e 7ebf 5400 b7bf f6a8 25be
00000200: ddb0 a1be a43c 77bf ac78 9dbf 2e4e 13bf
00000210: e980 04bf edf5 f0be c8c4 70bf 90a8 bdbf
00000220: 4fb8 d6be 7265 87bf 0471 9bbe 2f8e 0dbe
00000230: 229c ee3d 1d61 36be ff03 03bf 4046 bfbe
00000240: c8da 24bf d7ef c8be fda7 78bf d1f0 03bf
00000250: e82a 65bf d912 0bbf ab19 05bf 354c 55bf
00000260: 0c64 d3be 3826 e2be 1218 d8bf 8f33 b2bf
00000270: 91cf 9dbf c804 c4be 6cdc 62bf 289b c2be
00000280: 51b4 8cbf 24a0 93bf 281c 76bf 1d61 58be
00000290: 1dec a8bf 96b7 ab3e 929c 65bf f120 07bd
000002a0: a0ba 87bf c6ea b3bf f149 ebbe ddeb 1bbf
000002b0: e96f b5be 85aa ddbd 6d9a 1cbf 624b 6bbf
000002c0: bea9 8abf 327c c2be 2c05 903c ae4b 37bf
000002d0: ca99 32bf 109e 74bf bb09 5cbf 45c6 adbe
000002e0: 095b 86be 8823 2bbf deac 70bf e113 23bf
000002f0: d31f 1cbf e973 04bf 5643 83be d236 01bf
00000300: a991 04bf 24bc 93bf 38e6 7dbf 4b8d a4bf
00000310: 6a6c a7bf 7750 4dbf 9171 fdbe 9444 b4be
00000320: aebd c9be d164 b13e 5420 e93d 06bf 3bbd
00000330: 3b55 0abf 7284 3ebf 7903 20bf 7380 3cbe
00000340: 30b7 d43e e44e 773e bfaa e03e 0d99 e1be
00000350: bab7 d6be b0ff 383d 2029 a0be eee7 93bd
00000360: fb4d 203f c4f3 943f 7cee 10be 9a08 013f
00000370: db94 cebe 0ac3 11be 82bd 8fbd 0c6d c4bd
00000380: ea10 bd3d 12e2 423f d210 ce3d ffb8 d0bd
00000390: 9b0d 2ebf 6e96 b6be ebca 043d 43f5 bfbd
000003a0: 92df b53e dedd 433e a163 bc3d 72a7 80bd
000003b0: a271 99bd 11b8 9ebe 5bbc e7be 405e 0d3d
000003c0: 503e 12be fe3d 41be 346b 673e 31c7 8d3f
000003d0: 3755 393e 56ef afbe 6871 553e 4022 2c3d
000003e0: 82c6 353f 6c2c 203f c47e 8b3e d3e8 74be
000003f0: 5f2e 963f af1f 81be 3827 673f 01ab 0abe
-0.0016461822 -0.012092594 0.3589975 0.072950184 -0.1831598 -0.4521208 -0.5427209 -0.5337281
-0.4071434 -0.6603126 0.14242853 -0.37959355 -1.1971536 -0.316429 -0.14804043 -0.14092025
0.17524143 -0.12041042 0.15791224 -0.45327768 0.43068132 -0.21344833 -0.5128059 0.33031312
-0.5708346 0.19207889 -1.0605928 0.3862269 -0.39594266 0.46743864 -0.22796263 -0.21923693
0.14130566 -0.6307065 0.08560239 -0.6054087 0.36737263 -0.15808503 -0.69621044 -0.317858
0.12589811 -0.475551 -0.47883722 -0.39676172 0.30197436 -0.39774173 -0.36186412 -0.4259818
0.31308383 -0.24762753 0.34615505 -0.3152831 -0.5941091 -0.0014422394 -0.03230565 -0.0899673
-0.286196 -0.3891072 -0.94110936 0.16285664 0.026158676 -0.57922935 -0.5812202 0.34385064
-0.36725372 -0.21960062 -0.42804274 0.06698348 -0.33080333 0.46512747 -0.6485968 -0.48534733
-0.10765346 0.16679506 0.29097527 -0.6684952 -0.36042434 0.28106564 -0.4535416 -0.89479464
-0.10485161 0.80574125 -0.42521238 -0.014794603 -0.29762137 0.24202293 0.16160652 -0.8645861
-0.9075376 0.18298449 -0.41191196 -0.15164502 -0.16931608 -0.4760521 -0.062214922 -0.59078646
0.13221332 0.088718 0.019465161 -0.2654075 -0.81165344 -0.23121093 -0.6552482 -0.70103
-0.78361005 -0.5688871 -0.8563237 -0.9130428 0.15015705 -0.435113 -0.3266932 -0.5542876
-0.4078927 -1.4219688 -1.0210146 -0.5624805 -0.2600618 -0.46302897 -0.3202183 -0.29418927
-0.005413471 -0.2131761 -0.8708604 -1.1015769 -0.4038001 -0.99289984 -1.4296975 -0.16177735
-0.31580248 -0.96576905 -1.2302451 -0.5754117 -0.517592 -0.47062626 -0.94050264 -1.4817066
-0.4193749 -1.0577834 -0.30359662 -0.1382377 0.11650874 -0.17810483 -0.5117797 -0.37358284
-0.64396334 -0.39245483 -0.9713133 -0.5153933 -0.89518595 -0.54325634 -0.5199229 -0.8331941
-0.41287267 -0.44169784 -1.6882346 -1.3921984 -1.2328969 -0.38284898 -0.8861759 -0.38009
-1.0992528 -1.1533246 -0.96136713 -0.21130796 -1.3197056 0.33538502 -0.8969203 -0.0329904
-1.0603828 -1.4056022 -0.4595485 -0.60906774 -0.35436943 -0.1082354 -0.61173135 -0.919119
-1.0833051 -0.37985379 0.017580591 -0.71599853 -0.69765913 -0.95553684 -0.8595235 -0.3394033
-0.2624133 -0.6685109 -0.94013774 -0.6370221 -0.6098606 -0.51739365 -0.2563731 -0.50474274
-0.5178476 -1.1541791 -0.9917941 -1.2855619 -1.307996 -0.80200905 -0.49500707 -0.3520857
-0.39402527 0.3464723 0.11383119 -0.04583647 -0.540363 -0.74420846 -0.625053 -0.18408374
0.4154601 0.24151188 0.4388027 -0.4406208 -0.41937047 0.045165718 -0.31281376 -0.072219715
0.6261899 1.1636891 -0.14153475 0.5040375 -0.40347943 -0.14234558 -0.070185676 -0.095911115
0.09231742 0.76126206 0.10061802 -0.10191535 -0.6798951 -0.35661644 0.03242008 -0.09372952
0.35522133 0.19127604 0.0919869 -0.06281938 -0.07492377 -0.30999807 -0.4526089 0.034513712
-0.14281583 -0.18871304 0.22599488 1.1076413 0.18098913 -0.34362286 0.20844042 0.04202485
0.71006024 0.6256778 0.27245152 -0.2391694 1.1732901 -0.25219485 0.9029422 -0.13541795

bias_hh_l0 f4 [300]
00000000: c187 073d 64c7 f7bc 9802 953e 4524 983c
00000010: f75e a9bd da95 00bf c354 eebe 7802 19bf
00000020: e75f 00bf 2daa 35bf fdc8 b03d 80d0 ffbe
00000030: 54f4 9abf 18e0 94be 8d69 0dbe 5cee 4bbd
00000040: 70d8 d33d ca29 3fbe fe3d 123e 4c1b a7be
00000050: 2f5e b83e e9e0 4fbe 46de 07bf 9c7e 293e
00000060: fdaf e5be 7ef7 b73d ade9 8bbf deea d83e
00000070: fb15 bcbe 8b45 0d3f 8f97 9dbe 7b2e 41be
00000080: 16d0 823e e157 2ebf 2eb3 f23d 73ae 03bf
00000090: e6d8 e83e 5014 4cbe 8944 0fbf 4f66 c4be
000000a0: 7bcf 4b3e 6c4b dabe 9f6c e2be 2e6f d5be
000000b0: 6a49 b43e 86ef aabe 3d4b adbe 651e 9fbe
000000c0: 30bc ad3e 2917 b3be bc9d d73e ea1b 75be
000000d0: eb39 0dbf 18ad 35bd 9491 00be 6a5e 15be
000000e0: e755 d9be d38d b5be 5b88 55bf 8d88 59bb
000000f0: d465 443d cee9 27bf 1d8f 10bf e2f7 f53e
00000100: b893 c1be e792 76be 85bd 9cbe 9016 713b
00000110: 347a debe 58c6 113f 9b46 37bf 0edb 09bf
00000120: 144f 1bbe bb1e 373e 5042 913e be32 24bf
00000130: 94f7 b2be dc6b 9f3e cb4f c5be 0d5a 51bf
00000140: c8f7 82be 1516 423f 1e41 9ebe 5745 8abd
00000150: 2c1d 7bbe de29 803e 9995 e03d 32f6 46bf
00000160: a061 6dbf 870d 393e b6a4 fbbe 686d cabd
00000170: d736 ccbd 70aa b3be 695b d6bc b226 25bf
00000180: b01e 7c3d 3da5 313e 98d4 c83c 2927 4abe
00000190: 83d5 4cbf d3a1 3abe 5bf8 24bf c026 2bbf
000001a0: b7a1 2fbf 481d 3cbf 8c02 6bbf e174 79bf
000001b0: 6963 203e 9617 babe 4bbc 49be e4cf 05bf
000001c0: 5cd4 a3be abae c7bf ec42 68bf 257c 22bf
000001d0: 5d89 d7bd 2021 dbbe 4530 b2be 6449 b4be
000001e0: 0287 93bd d21d 1abe 3f3a 52bf 2231 7cbf
000001f0: 2b31 f4be d757 66bf 1c87 afbf 45ea 8cbd
00000200: bf84 cdbe cce4 7bbf 3f83 8fbf 19e6 33bf
00000210: a37a eabe 95ba c3be 447d 81bf 2a72 bfbf
00000220: 2df4 eebe 7a5f 8cbf 9a32 a2be 50d0 0cbd
00000230: 09c5 943d fc84 cbbd c928 01bf ace0 d7be
00000240: c2b8 36bf 07a9 c5be bda7 71bf 06cb edbe
00000250: 5204 4ebf 40d0 00bf 20ee ffbe 79e6 52bf
00000260: d41a c4be 2e17 d4be 7680 cbbf 435b b3bf
00000270: 7994 96bf 8c7e ecbe 80bd 4cbf b890 f2be
00000280: 4510 79bf ae93 a5bf 7642 67bf 134b 82be
00000290: 61b5 a5bf 989d 8c3e f62d 5cbf 1d32 2abd
000002a0: 78ff 8bbf 6962 a8bf d9b6 d3be 0d86 2ebf
000002b0: 6f0d ffbe 4dee a5bd 5088 e1be b0e7 64bf
000002c0: d5ef 78bf 247d 92be dd1c afbd 28d9 2bbf
000002d0: 2e16 30bf c7e1 8abf c9e4 73bf 3f68 49be
000002e0: 5d16 94be 1c44 2ebf 8ce0 8cbf d917 01bf
000002f0: db9f 1dbf 0895 28bf 509d 8cbe c5b3 f0be
00000300: a2ea dcbe 6207 8fbf 1cda 6ebf 87bf 91bf
00000310: 40ad b0bf 59ba 5fbf dcce 09bf ca24 aebe
00000320: 9ab3 70bf 33de 5cbf d3d3 653e 324c 91bf
00000330: 3421 97be 29ed adbe 6743 92be 1b1c 613f
00000340: 0bd3 4c3e a31d 0abf c8e5 0a3f a064 e53d
00000350: 0be5 4dbe 1575 733f 90a4 b93e 8f1f c5be
00000360: 148a fd3d ff16 053f 6e1b 61bf 494a a83e
00000370: 11b9 0dbf f16a 5bbf 7df4 4d3d 7a3a 53be
00000380: 1562 a33e e2bd 4a3e 9611 373e cf2f f1be
00000390: 4364 4fbf e052 62bf 3ea4 843e e495 003e
000003a0: 173f ec3e 6cdd c53e 5d27 fb3e 0cba c83e
000003b0: 0673 d6bd df18 273f 84cd e2be b195 14bf
000003c0: ee51 c5bf 841c 14bf 21ef a5bd 1909 f03e
000003d0: fa9b 683f dc6d 11bf ec35 d33e 649b 2c3e
000003e0: 43ab d43f 227f 2f3f 65de 823e 8359 6fbf
000003f0: b05c 103f acd8 a8bf e711 063f 778a 8ebd
0.03308845 -0.030246444 0.2910354 0.018571982 -0.08270066 -0.50228655 -0.46549043 -0.5976939
-0.50146335 -0.7096279 0.086320855 -0.4996376 -1.2105813 -0.2907722 -0.13809796 -0.049787864
0.103440166 -0.18668285 0.1428146 -0.32638013 0.36009356 -0.2030064 -0.5307354 0.16552204
-0.4486083 0.08982752 -1.0930687 0.4236669 -0.3673552 0.5518424 -0.30779693 -0.18865387
0.25549382 -0.6810284 0.11850582 -0.51438063 0.4547798 -0.19929624 -0.5596395 -0.38359305
0.19903366 -0.42635667 -0.44223496 -0.41686386 0.3521226 -0.33385867 -0.33846465 -0.31077877
0.33932638 -0.34978607 0.4211253 -0.2393643 -0.551665 -0.04435453 -0.12555534 -0.14586797
-0.4244835 -0.35459766 -0.83411187 -0.0033192963 0.047948673 -0.6559113 -0.56468374 0.48040682
-0.37808013 -0.24079476 -0.30613342 0.003678713 -0.4345261 0.56943274 -0.7159211 -0.53849876
-0.15166885 0.17882816 0.28370905 -0.64139926 -0.34954512 0.31136978 -0.3853744 -0.8177803
-0.25579667 0.75814945 -0.30909055 -0.06751507 -0.24522847 0.25031942 0.109660335 -0.77719414
-0.9272709 0.18071567 -0.49149102 -0.09884149 -0.09971397 -0.3509097 -0.026166635 -0.6451217
0.061552703 0.1734819 0.024515435 -0.19741501 -0.80013293 -0.18225794 -0.6444146 -0.66856
-0.6860613 -0.7348218 -0.9180076 -0.9744397 0.15662922 -0.3634612 -0.19700734 -0.5227034
-0.31997955 -1.560018 -0.90727115 -0.6347068 -0.10524247 -0.4279871 -0.34802452 -0.35212243
-0.07203485 -0.15050438 -0.82120126 -0.9851247 -0.47693762 -0.8997778 -1.3713107 -0.06880621
-0.4014034 -0.9839599 -1.1211928 -0.70272976 -0.4579669 -0.38228288 -1.0116353 -1.4956715
-0.46670666 -1.0966637 -0.3167923 -0.03437835 0.07264144 -0.09937474 -0.5045286 -0.421636
-0.7137567 -0.3860552 -0.94396573 -0.46443957 -0.8047534 -0.50317764 -0.49986362 -0.82382923
-0.38301718 -0.41423935 -1.5898578 -1.4012226 -1.176406 -0.46190298 -0.79976654 -0.47376037
-0.9729045 -1.2935693 -0.90335786 -0.25447902 -1.2945977 0.27463984 -0.8600763 -0.041551698
-1.0937338 -1.3155032 -0.4135044 -0.68173295 -0.49814937 -0.08102093 -0.4404931 -0.8941603
-0.97240955 -0.286111 -0.08550427 -0.6712823 -0.68783844 -1.0850152 -0.95270973 -0.19668673
-0.28923312 -0.68072677 -1.1006026 -0.50427014 -0.61572045 -0.65852404 -0.2746377 -0.47012153
-0.4314776 -1.1174128 -0.9330156 -1.1386575 -1.3802872 -0.8739372 -0.5383127 -0.34012443
-0.9402405 -0.8627655 0.22444086 -1.1351378 -0.2951752 -0.3397 -0.2856705 0.8793351
0.20002382 -0.5395147 0.5425687 0.11200833 -0.20106904 0.9510053 0.36258364 -0.3850064
0.12379852 0.51988214 -0.8793248 0.32869175 -0.55360514 -0.85710055 0.05028199 -0.20627776
0.31910768 0.19798997 0.17877802 -0.47106788 -0.8101236 -0.8840771 0.25906557 0.12557179
0.46141884 0.38645494 0.4905347 0.39204443 -0.10471158 0.65272325 -0.4429742 -0.5804091
-1.5415628 -0.5785601 -0.08102251 0.4688194 0.90863 -0.5680826 0.41252077 0.16856152
1.6614765 0.68553364 0.255603 -0.9349596 0.5639143 -1.3191123 0.52371067 -0.06960004

weight_ih_l1 f4 [300, 100]
00000000: 6656 ae3e 677f 2bbf ea91 1fbf e1fe b83f
00000010: 8f28 0d3f d3e2 01bf 642f 313e f972 cdbc
00000020: ed01 173f 803c cf3f f2e2 193e 8d2d d2be
00000030: f198 2e3f bd3e 0ebe 9cfc 0ebf 28c7 3b3f
00000040: 19aa f53d 1be4 3e3f b0be 6e3f 06b8 d93f
00000050: 5742 12bf 3962 2fbf 0f42 fc3e d8e1 ab3f
00000060: 6984 6e3f ff33 893d d80d 96bf bda6 b2bf
00000070: 3914 9b3e a3ab 673e 564f 84be f8d8 54be
00000080: 07be 85bf c454 42be aa60 b9bf 464f 303f
00000090: df7b 13bf c4f3 01c0 e9f3 b3bd 0304 053f
000000a0: 646c 523f e81b bf3e 1971 a73f 9014 e7bf
000000b0: 458e a7be 0957 9d3e 27cf 4dbf 299e b4be
000000c0: 0b32 843e 2937 21bf 7f4d 62be 57e3 133f
000000d0: 2c4e 8c3d d7bc 2fbf c221 513e bb63 ffbe
000000e0: 6f96 8a3e f0fe 54be 2f79 03bf 6398 2dbf
000000f0: 018d 2d3f 2b14 e2be 0009 f4be 790d 1abe
00000100: d267 02bd 31af 083f dc5b 2740 96dd 59bf
00000110: 05c5 d13d 5f9a 08bf 3de2 4fbf 2132 63be
00000120: 2536 81be c775 453f 60d7 983f 63dc 763f
00000130: 9ccd 3bbf 34e6 413f eba4 973d 4ad2 c93f
00000140: ea82 36bf 06a2 bc3f ad2a 13be 0d8b 5f3f
00000150: 5467 a23e b2a2 d5bd 1e77 09be a96e 033f
00000160: 6543 a1bd c5ac 153f 9a79 5b3e d3df 9a3e
00000170: b54b 4f3f a12c b4be f314 b23e 06ba ce3f
00000180: 3101 473d 121d 8f3e c79a 34bf aadc 7abe
00000190: 0544 373e 5183 e3be a5af f23d 9557 42bd
000001a0: d0dc eabe e5b8 61bf 7cf5 aabf c204 9dbf
000001b0: f4f2 363f 49ae dc3f 9319 9b3e 8edd 8dbe
000001c0: 1ebd d0bf 302c 39bf 1a0d 0cbf e95e 8dbf
000001d0: 322c a3be 410e 883f b517 fa3e afb0 5abd
000001e0: d1f8 0a3e ca67 ff3f 1c4a e4be fded 9a3e
000001f0: 0e9e 82bf 1898 95bd cda9 82bf 5a4b fa3d
00000200: 17f2 603e 2554 4e3f dc24 1dbf 4a1b edbf
00000210: d287 d2be a8fe b8be e035 b3be d85d 563f
00000220: 5ca1 cc3e 3d3e 18c0 950a c4bf 9252 223e
00000230: ca35 f5be 7d43 0d3f 671a 3b3f 536d 84be
00000240: 77fe ca3e 3130 8dbe 02a6 0abf 0387 12bf
00000250: bb92 003f 37c2 3e3f 692f 4c3f 5ed8 d7be
00000260: 678a 7a3e 2974 b63f 4a74 673e 9786 9f3f
00000270: 15f7 2f3f f08e 8dbf c2ee 9c3f aa60 8b3d
00000280: a89e d33e 6a30 cd3e bfb3 803e da0f bd3d
00000290: e0d5 5e3f 0637 f23c 6b26 293e 2e98 a3bd
000002a0: b551 8f3f 437a 33be d68f 62be 43f2 203f
000002b0: 6374 adbf f2d7 0040 4a16 18be 717e 87bf
000002c0: 9d1b 88bf e645 93bf 0376 08bf 078d 7f3f
000002d0: be71 4e3f 2cbc 40bf 9c21 01c0 9f70 5c3f
000002e0: 80db 4b3f 1453 1fbf 3dd7 9ebd 568c 85bf
000002f0: f29e 3440 c055 04c0 70a4 ac3e f9e5 9cbf
00000300: bb69 803e c9e2 0cbf c63d 1e3f 7c3d b23e
00000310: 525e 1f3e 7cad 803e 40fb 36be c62b 043d
00000320: ab77 563f 4047 35bd 1c66 81bf 8f78 273e
00000330: d7a1 ed3e db8d cebf 18bc 61be 2ea2 fd3e
00000340: 7da1 1abf 181a 5dbc 12b5 9fbe 6b2b f5bd
00000350: 94b9 ffbd 10a6 a4bf b6ce 653f 8856 c53f
00000360: 9dd0 63bf 8e16 4bbf d025 103f 6c5f 38bf
00000370: 22a0 123f 9a6a 4f3e fd33 3dbf 6dab 4c3f
00000380: 6d49 3640 43a4 93bf 4454 4dbe 8ed1 e93d
00000390: ac2c 00bf 65ff 03bf aa79 4abf ed7a 973e
000003a0: f786 283f 151c 0e3f 061b 9dbe 5ea2 e2bd
000003b0: d13e df3e 6ab2 99be 939c 40bf 93c0 343d
000003c0: d9e6 923e 3b5d 723f 8ae4 e33e a1f2 96be
000003d0: 1133 743d 79ec f53e e6fa 1d3f 21f5 a93e
000003e0: a992 413f 4a68 0640 d524 c8be d275 a13b
000003f0: 1fc0 89bf 532e 0f3f fef1 19be cc40 0f40
0.34050292 -0.66991276 -0.6233202 1.4452783 0.5514001 -0.5073673 0.17303234 -0.025079237
0.58987314 1.6190338 0.15027979 -0.41050377 0.6820212 -0.1389112 -0.558542 0.73350763
0.11995334 0.7456681 0.93259716 1.7009284 -0.57132477 -0.6850925 0.4926915 1.3428297
0.9317079 0.066993706 -1.1722975 -1.3957134 0.30288866 0.22624068 -0.2584178 -0.20785892
-1.0448617 -0.18977648 -1.4482625 0.6887096 -0.5761089 -2.0305033 -0.087867565 0.51959246
0.8219664 0.37325978 1.308139 -1.805315 -0.3272573 0.30730465 -0.80394214 -0.35276917
0.2581943 -0.6297479 -0.22099875 0.5776877 0.068508476 -0.6864752 0.20423034 -0.49880776
0.27067897 -0.20800376 -0.51356786 -0.6781065 0.6779328 -0.44156012 -0.47663116 -0.15044202
-0.031837292 0.5339232 2.6149817 -0.8510374 0.102426566 -0.5336055 -0.8120459 -0.22187091
-0.25236621 0.7713284 1.1940727 0.96430033 -0.7336061 0.7574189 0.074045025 1.57673
-0.7129351 1.4736946 -0.14371748 0.8732155 0.31719458 -0.10431422 -0.13424346 0.5134073
-0.078741826 0.5846675 0.21433106 0.3024889 0.80974895 -0.351903 0.34781608 1.615052
0.04858512 0.27951866 -0.7054867 -0.24498239 0.17897041 -0.44436124 0.11849908 -0.047446806
-0.45871592 -0.8817275 -1.3356166 -1.2267077 0.7146447 1.7240688 0.3029295 -0.27708095
-1.6307714 -0.7233305 -0.5470749 -1.1044589 -0.31869656 1.062935 0.48846212 -0.053391155
0.13571478 1.9953549 -0.4458779 0.30259696 -1.0204484 -0.073044 -1.0208069 0.122214034
0.2196735 0.80597144 -0.6138437 -1.8523953 -0.41119248 -0.36131787 -0.3500204 0.83736944
0.39966857 -2.3787987 -1.5315729 0.1585181 -0.478926 0.55181104 0.7308716 -0.25864658
0.39647266 -0.2757583 -0.5415956 -0.5723726 0.5022389 0.745151 0.7975984 -0.42157263
0.24466859 1.4254199 0.22602955 1.2462949 0.6873639 -1.1059246 1.2260363 0.068055466
0.41331983 0.40076 0.25137135 0.09231539 0.870451 0.029567253 0.16518562 -0.0798801
1.119681 -0.17527108 -0.22125182 0.6286966 -1.3551143 2.0131803 -0.14852253 -1.0585462
-1.0633427 -1.1505706 -0.5330507 0.99824566 0.80642307 -0.7528713 -2.0176764 0.86109346
0.79631805 -0.6223614 -0.07755897 -1.0433452 2.8222013 -2.0677338 0.33719206 -1.2257682
0.25080666 -0.55033547 0.6181301 0.34812534 0.15563324 0.25132358 -0.17869282 0.032268308
0.8377635 -0.044257402 -1.0109286 0.16354583 0.46412537 -1.6137041 -0.22044408 0.49537796
-0.6040266 -0.013494991 -0.31192833 -0.11971172 -0.12486568 -1.2863178 0.8976854 1.5417032
-0.88990194 -0.7933129 0.563077 -0.720206 0.57275593 0.20255509 -0.7390745 0.79949075
2.8482316 -1.1534504 -0.20051676 0.114169225 -0.50068164 -0.51561576 -0.79091895 0.29585972
0.6583094 0.555116 -0.3068468 -0.11066125 0.43602613 -0.30018932 -0.75238913 0.044128966
0.28691748 0.9467351 0.445103 -0.29481986 0.059619013 0.48031977 0.61710966 0.3319483
0.7561441 2.1001153 -0.390906 0.0049273754 -1.0761756 0.5593006 -0.15033719 2.23833

weight_hh_l1 f4 [300, 100]
00000000: 1199 73bf 9b47 8c3d 48ca f43e d1dc e2be
00000010: 6405 bd3e c707 b93e 9adb a3bb 1ec5 aabe
00000020: 203f 23bf 8944 863e 165d 9c3e 65fa 663e
00000030: a71c f93d 7625 2d3f fab4 6d3e 2025 edbd
00000040: 68e8 793d b605 c03e 5ef5 d03c 1770 14bf
00000050: b557 2f3f b569 95bf 8634 9abe 525c e53d
00000060: 278e 0ebf 1f78 81bf d324 1c3f cd97 a03e
00000070: b11b 5ebe a995 2f3f 2948 bbbd 722d 183d
00000080: 880b 38bf ed59 b13e 5f42 63bf f646 a2bd
00000090: 0259 f53e ffb4 44be fc16 bc3d 16b2 06bf
000000a0: 1082 c3be e9a4 afbe ef3c 76bf 6407 81bf
000000b0: e166 fc3e 7322 203e b8d2 08bf 46a3 e3be
000000c0: ceda 2bbf 8533 44be 8fa2 2a3f 258a 42be
000000d0: 4e24 9cbe e499 c03e 5008 70be 476b c13e
000000e0: 7ebc 0ebc f5c5 1bbe 7527 8ebf ccd8 023d
000000f0: 1aab bebd 1574 363f 4628 eb3e 72c3 fbbd
00000100: dedc cbbe c07d b43e d348 8e3d e30d 153f
00000110: d048 b23e cd95 0cbf 9115 4bbf 2f24 09bf
00000120: 2688 9dbd 34aa 7fbf 3fe2 ddbe 22cb 85be
00000130: 170a 29bf e75a 3a3f 9731 9cbf 2703 babd
00000140: 3e68 033f 806d 3e3f 6f92 67be e8f2 4b3e
00000150: 9641 adbd a054 57bf cca1 7a3d 25a4 41be
00000160: 5051 543e aa3b 8e3d 846a 053f 0cc2 7dbe
00000170: 90c0 0abe 1be6 26bf 8d6a f9bd c05c 503d
00000180: d594 e7be 35a6 62bf 29f8 d03f e86c 1f3f
00000190: 1032 423f 98e6 b2bc dc3f 1f3e fcc9 c0bd
000001a0: ec6b fdbd 8a4b 9cbf be9a 163e c0ca 453e
000001b0: 2067 d0bb 0945 8cbe 7198 9abf 1d71 123f
000001c0: 99cf ba3f d3de e8be 8607 c4be bd75 403e
000001d0: 8dee 4dbd 78d2 3cbe f0bd c33e 77f6 02be
000001e0: cb42 e3be f9a6 313f 2701 4e3f e139 65be
000001f0: 6df6 813b d1ea 76bf 8332 4bbe b815 c8be
00000200: b45d 703f f7e4 0cbe 29a6 ec3e 6ac4 0fbe
00000210: 2e7b 6c3f 6f54 e6bd fb9d afbd d095 15bf
00000220: 0cb6 723f 01b5 51bf 5adb d4be 423b fbbe
00000230: c30e 5d3f ee1b 4dbf ac69 05be b980 19be
00000240: 784f 1e3f 82d8 8a3c a020 8b3e 1e5e bb3c
00000250: a903 dcbe c635 1cbf 894e 4d3e 9db1 46be
00000260: 38cd 48bf f7c6 183e 073d c33e 9e74 e03e
00000270: 1672 093f aefb 033e 3e02 debe 5bfc 8c3d
00000280: 2c3f 9b3f d6da 193f 4f9b 72bf bedb 3cbf
00000290: 83f9 62bf f8d8 ccbf 360c a63d 9f6e c63e
000002a0: d2e5 acbf 50be 44bf 89ec 8b3f 262f d4bd
000002b0: 3493 c8bb 6138 c43e 4398 293f a5b9 113f
000002c0: d8e9 79be e2ed 5c3f 2146 0bbf e04c efbe
000002d0: e58e 523f 1c81 ddbc 8681 443f b246 0d3f
000002e0: 1e27 f13d f50f f7bd 8199 b9bf 4669 5d3f
000002f0: 2e96 683d e785 a23e 3fd2 e1be a15b 6dbe
00000300: a4b0 10bf 5c76 53bf 0e0a d0be aadd 003f
00000310: 30d0 3d3f da7e 03bf d132 c53e 633d a3bd
00000320: 65fb 913e 8d66 ac3d cba8 91bd 3bbf f8bd
00000330: c0c0 0abe 1665 3d3f ab2d edbe b5ee 283e
00000340: ad39 aabd 2289 bf3f 8b71 5f3e d969 7a3e
00000350: d30a a43e f6c1 1fbf b929 e6be 68d5 533e
00000360: 1150 b33f 9b02 91be 0144 5a3e a5aa fd3e
00000370: 6baa 3fbe f68a fcbf 106a 9cbf 88df 2b3f
00000380: b4fb 08be 73ed 48be 55a7 2bbe 7a29 9c3e
00000390: 8d53 8c3e 04fd 8bbe 2bc5 cebb 3adc 1b3f
000003a0: 0521 aabc 4ad0 43bf 9b7e 27bf aa63 a33e
000003b0: 68f7 afbf 0a1d a8bf 7266 ea3d 15d6 0ebf
000003c0: 11f2 a93c 9bea 1540 c6bf dbbe e135 27bd
000003d0: b154 3cbe 90dc 493d ab0a 833f 939a 9cbd
000003e0: 33ed aa3e 7bd4 9f3f b273 963e dd2a 4fbf
000003f0: 87d6 903f cdc8 a33f 9d11 0b3f bb40 4bbf
-0.95155436 0.06849595 0.47810578 -0.44309095 0.36918175 0.36138746 -0.005000544 -0.33353513
-0.63768196 0.26224163 0.3053977 0.22556455 0.12163668 0.67635286 0.23213568 -0.11579347
0.061012655 0.37504357 0.025507625 -0.57983536 0.68493205 -1.1672884 -0.30118197 0.11199249
-0.5568566 -1.0114783 0.6099369 0.31365815 -0.21690251 0.6858774 -0.09144623 0.037152715
-0.71892595 0.3463892 -0.8877315 -0.07923691 0.4791947 -0.1920967 0.091840714 -0.5261549
-0.38185167 -0.34305504 -0.9618673 -1.008038 0.4929724 0.15638141 -0.5344653 -0.44460505
-0.67130744 -0.19160278 0.66654295 -0.1899801 -0.30496448 0.3761741 -0.23440671 0.3777716
-0.008711932 -0.15212233 -1.1105791 0.031945035 -0.09309979 0.7127088 0.45929164 -0.122931376
-0.39816946 0.3525219 0.06947484 0.58224314 0.34821177 -0.5491608 -0.7932978 -0.53570837
-0.07691984 -0.99869084 -0.43336675 -0.2613154 -0.6603102 0.72794956 -1.2202634 -0.090826325
0.51330936 0.74385834 -0.22614454 0.1991688 -0.08459775 -0.841135 0.061189458 -0.18910272
0.20734143 0.06944974 0.52115655 -0.24781054 -0.1355002 -0.65194863 -0.12178526 0.050869703
-0.45230737 -0.8853486 1.6325732 0.6227555 0.7585764 -0.021838471 0.15551704 -0.094135255
-0.123741 -1.2210553 0.14707467 0.19315624 -0.0063599497 -0.2739642 -1.2077771 0.5720385
1.4594604 -0.454825 -0.3828699 0.18794914 -0.050276328 -0.18439662 0.38230848 -0.12789331
-0.44386896 0.69395405 0.8047051 -0.2238536 0.003966144 -0.9645205 -0.19843487 -0.3907907
0.9389298 -0.13759218 0.4622052 -0.1403977 0.9237546 -0.11246573 -0.08575054 -0.5843172
0.9480903 -0.81916815 -0.41573602 -0.49068648 0.8635065 -0.8012074 -0.13028592 -0.1499051
0.6184001 0.016948942 0.27173328 0.022872027 -0.42971542 -0.6101955 0.2004949 -0.19403692
-0.7843814 0.14919649 0.38132498 0.43838972 0.53689706 0.12888977 -0.43361086 0.068840705
1.2128654 0.6009954 -0.9476823 -0.737728 -0.88661975 -1.6003714 0.08107798 0.38756272
-1.3507636 -0.76852894 1.093156 -0.10360555 -0.0061210636 0.38324264 0.6624796 0.56923896
-0.2440561 0.8630048 -0.54403883 -0.46738338 0.8224929 -0.027039103 0.7676014 0.55186
0.11775039 -0.120635904 -1.4499971 0.8648876 0.056783848 0.31742784 -0.44105718 -0.23179485
-0.5651953 -0.8260248 -0.4063267 0.5033823 0.74145794 -0.51365435 0.38515332 -0.07970693
0.2851211 0.084179975 -0.07112273 -0.12145849 -0.13550091 0.7398237 -0.46323904 0.1649731
-0.08311782 1.4963725 0.21820657 0.2445444 0.32039508 -0.62405336 -0.44953707 0.20686877
1.4008809 -0.283223 0.21315004 0.49544254 -0.18717353 -1.9729908 -1.2219868 0.67137957
-0.13377267 -0.1962183 -0.16763051 0.30500394 0.27407494 -0.27341473 -0.0063101253 0.60882914
-0.020767698 -0.764897 -0.6542756 0.31911975 -1.3747377 -1.3133862 0.11445321 -0.55795413
0.02074531 2.3424442 -0.4291975 -0.040822867 -0.18391682 0.04928261 1.0237631 -0.0764667
0.33384094 1.2486719 0.29385144 -0.8092478 1.1315469 1.2795655 0.5432375 -0.79395646

bias_ih_l1 f4 [300]
00000000: a4e1 f6be e274 853d 7168 e73d f3ce 133b
00000010: 75c3 d03e 18d7 753e 8e91 fd3c bd12 8e3e
00000020: 86c6 6ebe ad7d 18bf 9f73 17be 330b b3be
00000030: 29e2 dabe 404a 123d 474d b13c 58b1 a9bd
00000040: ca71 56bd 7809 2e3e 6354 b6bd c47c eabe
00000050: 6ece 09be 77af aebd 075a 5a3e c95d 1b3e
00000060: 7470 1b3d f626 3f3d ea71 893e 2ee8 52be
00000070: 4d0a b43e ee0a 84be 65df e9be bb07 2ebe
00000080: 603c ecbd e0cb cdbe 185b 3dbe 4894 9b3d
00000090: 8d0d 483d e653 a1be 6faf cdbc 3259 a33d
000000a0: 9b02 a43c 5d66 94be fd3a 60bc 4a71 dfbe
000000b0: 4754 1e3e d729 c4bd aa16 1dbd 4c1e 263e
000000c0: e095 30be 25e2 1c3c 86a2 c9be b502 24be
000000d0: 0056 c5be d78f 83be 4f86 02bf 7f70 00be
000000e0: 4492 04be c692 fabd 708e b3bd cbdd 1d3e
000000f0: 95a5 1fbe 1163 5fbe 24a2 68bc c6c1 babd
00000100: c060 51be dad3 023e bac0 893e c1e8 633e
00000110: f34c c0be 485e cbbe d682 8bbe 5a10 343d
00000120: 57f5 dc3d 12f7 a2bd 58e4 ba3e 4905 debe
00000130: 6679 ff3d df89 04bf cc75 7fbe 15e9 c93d
00000140: 885c 3f3d 9cbf a5be 8d8f fe3e 6366 783d
00000150: 41a6 1fbe 56aa a9be 4e7d c4bd ce26 093d
00000160: 0da3 0abe f0d5 7abd c4b1 363b 12d0 e43d
00000170: e734 8fbd d243 cdbd f79f 3f3e ccec 223c
00000180: a151 8dbd e47f ecbe 2f3c 7d3d bc95 6a3d
00000190: 5b50 afbe 3415 d5be 8d6a 7cbf 8e32 91bf
000001a0: fd31 b73e 7e0e 7abe 73b1 dbbe 1828 75bf
000001b0: f4e0 83bf 8669 d5be d657 d7be d9a7 ccbd
000001c0: abe9 2bbc d566 55bf 6075 f9bd 09b1 02bf
000001d0: 03a2 24bf 61e2 8bbf 8fcc 553f 64b6 e2be
000001e0: aac5 e5bc 8907 66bf 9159 5bbe 9bb7 75bf
000001f0: 5871 6ebf 9523 8dbe ab64 87bf c721 b53e
00000200: 760c f53e 7e76 733e ed09 463f 5ee9 693d
00000210: 617f f8be f124 45bf cee0 bdbe 9b17 8cbe
00000220: 2f2f 5abf 0d47 30bd 216f f5be 010f 9cbd
00000230: 62b7 503c b436 893c 4d27 b2bf 00d0 99be
00000240: 6279 90bf 158e 01be e0ba a23d 9141 6dbf
00000250: c7dd 50be 7595 67be 59a2 6fbf 90c2 b0bd
00000260: ae41 cdbd 1c7d 7abe 4ec4 f8be 8e74 a2be
00000270: a135 7a3f 70d1 c83e 0209 10bf 934b a7bf
00000280: 14f7 97be 6673 a53e 83e7 9a3e e334 38bf
00000290: 5751 91bf b02f 2dbf e911 85bf c1c9 02bf
000002a0: 1519 b1be c857 9ebe 3a4e 54be ddd1 f7be
000002b0: 57ff f3bd 240b d3bc 0479 e73c 98b9 f0be
000002c0: 2c8c bebf 73ab 34bf 32ef 8ebe eb2e 02bf
000002d0: 024a bc3e 0ada 40bf 1592 31be dd9e 98be
000002e0: 895d 1b3d 4a26 b4bd 82cc ddbe b585 92bf
000002f0: 8136 26bf 80a6 04bf c043 c7be fe14 99bf
00000300: be78 8ebe 3cdc aebe b84e 47bf 9415 3bbf
00000310: ccaf 133d b5c8 bebe 11ad 19bf 0cac 3bbf
00000320: 762e 00be b8af 2a3e e584 9dbe d4f0 e43e
00000330: 75d7 8a3e c8ab e73e dbac ba3e 4416 e43e
00000340: 8c1c fe3d 7996 943e a1e0 843e 4828 b13e
00000350: 2a07 fd3d c7e1 8dbe af2c c2bd 5f39 cc3e
00000360: 7bae 293f b707 4ebf bd8e 903b 6a1e 0bbe
00000370: 2e9c 08be f4d6 803e 00c5 f2be be29 9b3e
00000380: d708 5d3e 2c7d 313e df68 dbbd 3ee6 0cbd
00000390: 5d42 f3bd c938 41be 498d 2cbe a64d 0c3f
000003a0: bee3 62be 928d f23d 46a8 683e 36d6 11bf
000003b0: 1de5 babe 9781 1c3e ee5c cb3d 50f2 093e
000003c0: bdc0 06bd 3a44 71be 6701 a83e 8061 3d3f
000003d0: bec4 bbbe 91fe b5be cb6f ad3e 1ce5 9b3e
000003e0: d383 b23e a18c f83e e0fc 603e 8251 843e
000003f0: b7c3 a9be e20a 33bb 05d7 22be 0af7 a33d
-0.48219025 0.06516434 0.112992175 0.0022553771 0.40774122 0.24007833 0.030953195 0.2774867
-0.23317918 -0.59566766 -0.147902 -0.34969482 -0.42750672 0.03571534 0.021643294 -0.08285779
-0.05235461 0.169958 -0.08902814 -0.45798314 -0.13457653 -0.08529561 0.21323405 0.15172495
0.03794904 0.046668015 0.26844722 -0.20596382 0.3516411 -0.2578959 -0.4567825 -0.16995136
-0.11534953 -0.40194607 -0.18491781 0.07596642 0.048841048 -0.31509322 -0.025108067 0.07975997
0.020020774 -0.28984347 -0.013685939 -0.4364112 0.15461837 -0.09578293 -0.038351692 0.16222495
-0.17244673 0.009575401 -0.39381808 -0.16016658 -0.38542175 -0.2569568 -0.5098619 -0.12542914
-0.12946421 -0.12235026 -0.08767402 0.15416639 -0.15590508 -0.21815135 -0.014198814 -0.091189906
-0.20447063 0.12776127 0.2690485 0.22256757 -0.37558708 -0.39720368 -0.27248257 0.043960907
0.10788982 -0.07957281 0.36502337 -0.43363407 0.12474327 -0.51772875 -0.2494728 0.0985891
0.046719104 -0.3237275 0.49718896 0.06064452 -0.15590765 -0.33137769 -0.095942125 0.033484273
-0.13538761 -0.061239183 0.0027876953 0.11172499 -0.06992512 -0.10022701 0.18713365 0.009944152
-0.06900335 -0.46191323 0.061824974 0.057271704 -0.34240994 -0.4161774 -0.98600084 -1.1343553
0.35780326 -0.24419591 -0.4290882 -0.95764303 -1.0303025 -0.4168207 -0.420592 -0.09992952
-0.0104927225 -0.83360034 -0.12180591 -0.51051384 -0.6430971 -1.092846 0.83515257 -0.44279778
-0.028048355 -0.8985525 -0.21420886 -0.95983285 -0.931417 -0.2756621 -1.0577596 0.35377333
0.4786107 0.2377567 0.77358896 0.057107322 -0.48534682 -0.77009493 -0.37085575 -0.2736176
-0.85228246 -0.04303651 -0.47936347 -0.07620049 0.012739034 0.016749717 -1.3918244 -0.30041504
-1.1287043 -0.12651856 0.079458 -0.9267817 -0.20397101 -0.22615607 -0.936071 -0.0863086
-0.10022293 -0.24461788 -0.4858727 -0.3172955 0.9773808 0.39222288 -0.56263745 -1.3069938
-0.29680693 0.32314605 0.30254754 -0.719557 -1.1352948 -0.6765089 -1.0396091 -0.510891
-0.3458945 -0.30926347 -0.20732966 -0.484023 -0.119139366 -0.025762148 0.028255947 -0.47016597
-1.4886527 -0.7057411 -0.27916867 -0.5085284 0.36775213 -0.753327 -0.17340882 -0.29808703
0.037931 -0.087963656 -0.4332009 -1.1447054 -0.64926916 -0.5181656 -0.38918877 -1.1959531
-0.27826494 -0.341524 -0.7785449 -0.730798 0.036056325 -0.37262502 -0.60029703 -0.733094
-0.12517723 0.16668594 -0.30765453 0.44714987 0.27117506 0.45248246 0.36460003 0.44548237
0.12407789 0.29021052 0.25952628 0.34601045 0.12354882 -0.27711317 -0.09481179 0.3988752
0.6628186 -0.8048052 0.004411547 -0.13585821 -0.13340828 0.25163996 -0.47415924 0.30305284
0.21585403 0.17332906 -0.10713362 -0.034399264 -0.11877892 -0.18869318 -0.16850771 0.5480598
-0.22157189 0.11843409 0.22720441 -0.56967485 -0.36502925 0.1528381 0.09929834 0.13471341
-0.032898653 -0.23561183 0.3281357 0.739769 -0.3667354 -0.3554578 0.33874354 0.30448234
0.348662 0.4854479 0.21971464 0.25843436 -0.3315713 -0.002731972 -0.15902336 0.08006103
