models/plot_summaries.pt (torch_old, 582712 bytes, 11 tensors)

weight f4 [100, 100]
2.0904655 0.5317305 -0.5897073 0.8038773 -0.9814438 0.56036764 0.8985038 -0.78341335
1.403514 0.559148 0.125163 1.9852053 -0.5756053 -0.3885322 -0.23444957 0.025267903
0.49334326 -1.1305553 -0.51273817 -0.47548956 0.3315543 -0.1421449 1.4604224 0.5513952
1.0711159 -0.06508365 -1.7980986 0.021030493 -0.5179694 1.0334005 0.257992 -1.7922798
-1.4463987 0.87698066 0.87193465 -1.4218973 -1.0979149 1.7648773 0.8745704 -1.005847
-1.9061658 -0.41787443 0.13702172 0.7889002 -0.34605157 1.0442654 0.9898676 -1.7256497
0.28437844 -0.34301078 0.69988996 -0.6645151 -1.7995609 -0.42907435 -0.5427284 -2.4346018
2.2015154 0.3803917 -0.07478233 0.3651021 -0.9824011 -1.0578802 -0.7559118 0.70560074
0.18272837 1.2262686 -0.65113026 0.19614899 0.8884362 -0.2903917 0.4104317 -0.01585045
-1.0597119 0.90413517 -0.39999542 -2.7658038 -0.82462895 -1.3522139 0.648581 -2.632391
-2.0712564 -1.1079019 -0.8660816 1.4353539 0.8146755 -0.80912566 -0.6858261 -0.41731733
-0.19004168 0.75630873 -1.2308968 -0.5018582 -1.4345944 -0.50890046 -0.37955242 -1.2140073
1.1842862 0.016906476 -0.28083956 0.8763061 1.4846169 -0.015877156 -0.029713646 -1.6490266
0.33767495 -0.2822091 -1.186362 -2.26874 0.24823083 -0.256998 -0.73950803 -0.31305218
0.80187654 -0.29029942 0.7641686 0.39644536 0.8356212 -0.327729 -1.32446 -0.3019367
0.6228414 -0.07313516 1.6610357 0.9429136 0.12684791 0.50324893 -0.21473716 -2.3152745
-0.025834456 -0.51415807 0.2581245 -0.022548655 2.0850413 -1.3353363 0.08991717 -0.22187674
0.19473247 0.2853796 -1.2767177 -1.6954652 -0.6137414 0.7371417 -1.4847565 1.5615957
-0.31231463 0.6585178 1.3942413 0.49982837 1.5660275 1.2406371 -2.1069605 0.7938133
0.015853664 -0.069544494 0.2764666 0.42371675 0.1915239 0.3858257 -0.80789626 0.05992836
-0.8006668 -1.9810338 -1.0880299 -1.4146703 0.006558328 0.3910834 -0.14111373 1.3259214
-2.1178093 1.1968503 2.002649 0.48626125 -0.12511761 1.7994028 0.39990696 -0.5311012
-1.0449033 -2.5486877 0.71737117 -1.4178401 -1.1646384 -1.2438532 0.30186328 1.4294978
-0.033960424 -0.64479893 0.9095824 1.3711401 -0.47996062 -0.40490475 -0.977686 1.190383
-0.31713817 -0.99304354 -1.0886154 -3.1186283 2.1519887 0.10214403 -0.11649064 2.0866487
0.22371219 -0.63339955 -1.1320816 0.5763512 0.9847724 1.7080705 2.0989826 -1.1704977
0.07851379 -0.030996697 -2.014521 0.1545594 -0.4246425 -1.2257099 0.04790987 0.88962793
1.480328 -0.92051876 -1.2990663 -0.75200593 -1.0392544 0.0584798 -0.5125344 0.72344273
0.1885565 1.6683551 -2.8558917 0.33018827 0.57022834 1.5323741 -0.12118024 -0.6730918
-0.7144231 -1.9975861 -1.3379564 0.89957476 0.29409653 0.8426443 -0.2525484 -0.63103306
0.31711572 -1.0695003 -0.43704122 -1.1733018 -0.6175041 1.0894512 -0.05872386 -0.30075598
-0.78498197 -1.637694 -0.6728346 -1.0617307 -0.78197485 -1.7238748 1.0372416 0.5042845
00000000: 30ca 0540 7d1f 083f 0ff7 16bf e7ca 4d3f
00000010: e73f 7bbf 4174 0f3f 5804 663f c78d 48bf
00000020: 59a6 b33f 5324 0f3f bb2a 003e 351b fe3f
00000030: de5a 13bf b1ed c6be 8c13 70be a2fe ce3c
00000040: 7d97 fc3e 09b6 90bf cf42 03bf 5e73 f3be
00000050: 7cc1 a93e 6f8e 11be 1fef ba3f 3c28 0d3f
00000060: 531a 893f 944a 85bd 1828 e6bf 2448 ac3c
00000070: a599 04bf 7846 843f 8717 843e 6d69 e5bf
00000080: 9823 b9bf ce81 603f 1c37 5f3f bb00 b6bf
00000090: 7a88 8cbf 80e7 e13f d9e3 5f3f 98bf 80bf
000000a0: 3efd f3bf a3f3 d5be 6c4f 0c3e 5df5 493f
000000b0: ac2d b1be 7daa 853f f767 7d3f 17e2 dcbf
000000c0: 0d9a 913e 1c9f afbe fd2b 333f a91d 2abf
000000d0: 0358 e6bf a2af dbbe 40f0 0abf 84d0 1bc0
000000e0: a1e5 0c40 b3c2 c23e 7a27 99bd aaee ba3e
000000f0: a37e 7bbf 9e68 87bf 7083 41bf 40a2 343f
00000100: 251d 3b3e 5ff6 9c3f 79b0 26bf 48db 483e
00000110: 8e70 633f 39ae 94be 1b24 d23e ced8 81bc
00000120: a4a4 87bf 6775 673f 33cc ccbe ee02 31c0
00000130: e21a 53bf 5815 adbf 6809 263f 1879 28c0
00000140: 778f 04c0 bbcf 8dbf 86b7 5dbf adb9 b73f
00000150: 938e 503f dc22 4fbf 4d92 2fbf 9eaa d5be
00000160: 499a 42be 739d 413f 078e 9dbf c779 00bf
00000170: caa0 b7bf 4d47 02bf b254 c2be 9764 9bbf
00000180: b196 973f 737f 8a3c 34ca 8fbe 9955 603f
00000190: ed07 be3f cf10 82bc 086a f3bc 4e13 d3bf
000001a0: bbe3 ac3e b67d 90be b6da 97bf 0933 11c0
000001b0: 3930 7e3e 3e95 83be 6650 3dbf 6048 a0be
000001c0: c847 4d3f 20a2 94be 8ea0 433f e3fa ca3e
000001d0: 45eb 553f 18cc a7be e887 a9bf 7297 9abe
000001e0: 8972 1f3f e3c7 95bd d19c d43f c962 713f
000001f0: 6be4 013e ecd4 003f 0fe4 5bbe 752d 14c0
00000200: c8a2 d3bc dd9f 03bf e528 843e f5b7 b8bc
00000210: 5171 0540 4dec aabf 7e26 b83d a833 63be
00000220: f367 473e 461d 923e 7c6b a3bf 0105 d9bf
00000230: 281e 1dbf 52b5 3c3f 800c bebf 5ee2 c73f
00000240: b4e7 9fbe 9f94 283f 8076 b23f 81e9 ff3e
00000250: 9773 c83f 32cd 9e3f 71d8 06c0 5937 4b3f
00000260: 8bdf 813c 586d 8ebd 088d 8d3e 67f1 d83e
00000270: d71e 443e f28a c53e 4ad2 4ebf 7177 753d
00000280: 80f8 4cbf 8492 fdbf 9044 8bbf eb13 b5bf
00000290: 3ee7 d63b 153c c83e 1e80 10be cbb7 a93f
000002a0: 308a 07c0 6432 993f 672b 0040 3cf7 f83e
000002b0: d51e 00be d552 e63f 9bc0 cc3e 40f6 07bf
000002c0: 64bf 85bf b31d 23c0 a3a5 373f c97b b5bf
000002d0: df12 95bf 9536 9fbf d38d 9a3e c9f9 b63f
000002e0: 161a 0bbd 8b11 25bf 64da 683f 8581 af3f
000002f0: 66bd f5be ad4f cfbe a149 7abf 785e 983f
00000300: ef5f a2be 1a38 7ebf c057 8bbf 9b97 47c0
00000310: 2fba 0940 e430 d13d a592 eebd a78b 0540
00000320: cf14 653e 7926 22bf 0de8 90bf c18b 133f
00000330: 0b1a 7c3f 0ea2 da3f bb55 0640 ded2 95bf
00000340: d7cb a03d c9ec fdbc e9ed 00c0 d244 1e3e
00000350: be6a d9be 10e4 9cbf 243d 443d a8be 633f
00000360: 637b bd3f 1ea7 6bbf ce47 a6bf 7683 40bf
00000370: 4a06 85bf 8488 6f3d 7435 03bf 8b33 393f
00000380: f514 413e a98c d53f eec6 36c0 700e a93e
00000390: 7cfa 113f d624 c43f 582d f8bd bf4f 2cbf
000003a0: 6fe4 36bf e7b0 ffbf 2842 abbf 884a 663f
000003b0: d293 963e 89b7 573f 064e 81be 628b 21bf
000003c0: fe5c a23e 63e5 88bf dec3 dfbe c12e 96bf
000003d0: c014 1ebf 2373 8b3f 6e88 70bd b0fc 99be
000003e0: 94f4 48bf f59f d1bf e33e 2cbf cbe6 87bf
000003f0: 812f 48bf eea7 dcbf 55c4 843f ca18 013f

weight_ih_l0 f4 [300, 100]
-0.28806835 0.18333146 -0.15889487 -0.13046908 -0.065928884 -0.37710828 -0.014815473 -0.34756124
-0.29815438 0.5400299 -0.6246592 0.59472674 -0.45797193 -0.5194259 0.3390971 -0.17315426
0.5055643 0.32782435 1.1014537 -0.12556505 0.22376955 0.18992731 -0.3502046 0.21678723
-0.34815428 -0.58529496 0.16180365 0.5094717 -0.23212747 -0.21656631 0.44066775 -0.24283548
0.20997508 0.22029696 0.55295855 0.19323175 0.06990766 0.0055179643 -0.33231315 0.9985396
0.08738651 0.18948257 0.4305799 -0.15344934 0.2992398 -0.29406103 -0.026929975 -0.06324766
0.54779065 0.058030672 -0.9643554 -0.7115743 0.8162447 0.5407788 -0.17307337 0.7440109
0.73051995 -0.61793894 -0.26297778 0.12690133 -0.23292334 0.7043507 -0.16549435 -0.2025006
0.10216958 1.1794558 -0.26309398 -0.53354883 0.23687068 0.059858557 0.20981653 0.28248778
0.22444011 0.18360245 0.49711484 -0.4036253 -0.3911433 -0.19038288 0.02157179 0.055377036
0.25507787 0.99501985 -0.16132985 -0.87782997 -0.6060707 -0.060778216 0.84705293 0.41039094
0.26173183 0.31918862 0.19578354 -0.12859531 0.35440195 0.16648284 -0.3446942 -0.57558054
-0.7124757 0.23675361 -0.02536074 -0.37940103 0.4608467 -0.18477647 0.55767965 -0.11755874
-0.3750763 -0.59891605 -0.015047025 -0.30786225 0.28330278 -0.9608898 -0.6378325 -0.27413383
-0.06376956 0.10364271 -0.2610028 -0.7091277 0.6665096 -0.1786774 -0.52182937 -0.12436375
-0.16814065 -0.0966962 0.24885756 -0.52860135 -0.06792179 -0.7690724 -0.7122482 -0.07557349
-1.0798913 -0.2828429 -0.08495637 1.1357952 1.3669062 -0.75197744 0.39933893 0.36385345
-0.3721641 0.086262055 0.54074913 -0.41091093 -0.46065277 0.14106573 -0.64296675 -0.1314532
0.21788779 0.5370376 0.054285765 -0.21488191 -0.36046413 -0.19414862 0.13895628 -0.25438437
0.3873331 -0.033556763 -0.08299111 0.2480133 -0.30922896 0.8165054 0.55013794 0.49966025
0.5017284 -0.77167296 -0.2560357 -0.29155475 -0.39370978 -0.16603827 -0.31458515 -0.23336107
0.032234874 0.76288044 0.0923073 0.5649413 -0.56356215 -0.11709016 0.13197601 0.5944922
-1.0980353 -0.18772505 0.74386024 -0.11846445 0.041051917 -0.7240973 0.12839343 -0.05101025
-0.023254406 -0.21515107 -0.19071524 -0.45027313 0.32154799 -0.68474466 -0.13723774 0.08496288
0.039236378 -0.4505434 -0.14522843 -0.26780576 0.21619482 0.8191984 0.31533775 0.3364146
-0.6823129 -0.019039525 0.02865405 -0.7705364 -1.262929 0.32715607 -0.8351327 0.82735837
-0.78191674 0.20153911 0.80778444 -0.43181813 -0.18057087 0.59663475 0.0072323317 0.29283494
0.85643345 1.1395687 -0.55228466 -0.5848367 0.28709802 0.85007226 0.084371485 0.55683744
0.61249596 0.80797964 0.10221496 -0.20844805 0.1674618 -0.43856645 0.13781382 -0.024937337
0.81362593 -0.13158742 0.7639391 0.77977026 0.48391178 0.42792472 -0.3144894 0.18674272
0.14023192 0.15841702 0.17168011 -0.5668428 -0.4384979 -0.8150736 -0.2566157 -0.24904658
0.45344824 -0.0010315444 0.13147272 0.1318999 -0.8017416 -0.28428185 0.27985972 1.185705
00000000: b27d 93be 3ebb 3b3e 56b5 22be b099 05be
00000010: b905 87bd 5614 c1be 99bc 72bc 8cf3 b1be
00000020: b1a7 98be 663f 0a3f aae9 1fbf 0340 183f
00000030: 4c7b eabe 19f9 04bf 239e ad3e 5a4f 31be
00000040: a96c 013f 98d8 a73e 6ffc 8c3f 2094 00be
00000050: d823 653e 4e7c 423e 044e b3be 79fd 5d3e
00000060: 4741 b2be e4d5 15bf dbaf 253e bd6c 023f
00000070: d3b2 6dbe 8fc3 5dbe 349f e13e dda9 78be
00000080: b503 573e 8795 613e b18e 0d3f 8bde 453e
00000090: bf2b 8f3d 0ad0 b43b f324 aabe 4ba0 7f3f
000000a0: b3f7 b23d b807 423e f874 dc3e d321 1dbe
000000b0: f635 993e 2b8f 96be 409c dcbc fd87 81bd
000000c0: 023c 0c3f 92b1 6d3d ffdf 76bf bc29 36bf
000000d0: 6af5 503f 7b70 0a3f 253a 31be 8077 3e3f
000000e0: 5b03 3b3f 3f31 1ebf 06a5 86be 6cf2 013e
000000f0: 7583 6ebe 5450 343f 5a77 29be 515c 4fbe
00000100: 493e d13d 68f8 963f 41b4 86be a896 08bf
00000110: 3a8e 723e 3f2e 753d 25da 563e 3da2 903e
00000120: a1d3 653e 4802 3c3e d685 fe3e faa7 cebe
00000130: ef43 c8be bbf3 42be 53b7 b03c 08d3 623d
00000140: 9199 823e 9fb9 7e3f a733 25be 77b9 60bf
00000150: 7327 1bbf 94f2 78bd 76d8 583f c31e d23e
00000160: b701 863e b16c a33e 7b7b 483e 7dae 03be
00000170: 2c74 b53e 7a7a 2a3e c27b b0be 3f59 13bf
00000180: cf64 36bf 8a6f 723e 54c1 cfbc da40 c2be
00000190: 19f4 eb3e 0b36 3dbe 18c4 0e3f a3c2 f0bd
000001a0: 000a c0be 9052 19bf cc87 76bc 1fa0 9dbe
000001b0: 100d 913e e0fc 75bf fe48 23bf 455b 8cbe
000001c0: 9d99 82bd a142 d43d 29a2 85be 6589 35bf
000001d0: 60a0 2a3f 35f7 36be 9c96 05bf 6cb2 febd
000001e0: 102d 2cbe a808 c6bd 84d4 7e3e 6b52 07bf
000001f0: 941a 8bbd eee1 44bf e655 36bf 46c6 9abd
00000200: e139 8abf c9d0 90be 9bfd adbd bd61 913f
00000210: c8f6 ae3f 9881 40bf 2776 cc3e 004b ba3e
00000220: 4b8c bebe 29aa b03d 896e 0a3f eb62 d2be
00000230: aeda ebbe 8973 103e 7899 24bf ab9b 06be
00000240: fa1d 5f3e 4c7b 093f c05a 5e3d 010a 5cbe
00000250: c18e b8be e5ce 46be 8e4a 0e3e ab3e 82be
00000260: 8650 c63e d172 09bd 3ef7 a9bd 33f7 7d3e
00000270: 4253 9ebe 7f06 513f d7d5 0c3f 78d3 ff3e
00000280: 4671 003f 5c8c 45bf 1c17 83be aa46 95be
00000290: 5494 c9be f005 2abe 4e11 a1be 34f6 6ebe
000002a0: b708 043d 224c 433f 9c0b bd3d fe9f 103f
000002b0: 9c45 10bf f7cc efbd b824 073e a430 183f
000002c0: 6c8c 8cbf ff3a 40be a06d 3e3f 7d9d f2bd
000002d0: 0e26 283d 715e 39bf 9179 033e 20f0 50bd
000002e0: 0680 bebc 9050 5cbe db4a 43be 338a e6be
000002f0: f0a1 a43e 6d4b 2fbf 0d88 0cbe 0501 ae3d
00000300: 53b6 203d a0ad e6be c3b6 14be d61d 89be
00000310: 2d62 5d3e fdb6 513f f373 a13e 893e ac3e
00000320: 0fac 2ebf c7f8 9bbc e6bb ea3c e041 45bf
00000330: a8a7 a1bf 0081 a73e 42cb 55bf c2cd 533f
00000340: b22b 48bf 4560 4e3e f6ca 4e3f 4417 ddbe
00000350: 92e7 38be 0ebd 183f 32fd ec3b 76ee 953e
00000360: 393f 5b3f 63dd 913f 8762 0dbf dcb7 15bf
00000370: 83fe 923e 569e 593f f5ca ac3d e68c 0e3f
00000380: 89cc 1c3f c1d7 4e3f 1456 d13d 6873 55be
00000390: 1b7b 2b3e c88b e0be 111f 0d3e 6349 ccbc
000003a0: ca49 503f dabe 06be 8391 433f 069f 473f
000003b0: 49c3 f73e f318 db3e c104 a1be 7c39 3f3e
000003c0: f598 0f3e 1238 223e e9cc 2f3e 9c1c 11bf
000003d0: cc82 e0be aaa8 50bf 2263 83be 1106 7fbe
000003e0: 5e2a e83e e334 87ba c9a0 063e c410 073e
000003f0: f03e 4dbf 648d 91be c649 8f3e 2ec5 973f

weight_hh_l0 f4 [300, 100]
0.87370723 0.040008113 0.10331735 -0.5804851 -0.2358744 0.3010973 -0.16518372 0.37561977
-0.113496184 -0.49831605 -0.7636149 0.31030002 -0.14572702 -0.2997109 -0.8082472 0.041042514
0.6563542 -1.060536 0.19276743 0.59569395 0.34240878 0.2942902 -0.13881163 -0.309985
-0.36909422 -1.4601434 -0.8325045 0.424213 0.6828294 -0.06923793 -0.030346619 0.49072927
0.8554901 0.52399933 -0.23180996 0.62587947 0.4833038 0.33272693 0.06312514 0.9433966
0.25114962 0.3189464 -0.037291832 -0.65741426 -1.4792207 -0.26767954 -0.017804174 1.2349389
0.36788332 0.66944987 0.76458603 -0.3489585 -1.409507 -0.5665576 -0.38455534 -0.1315016
-0.75470847 1.3768435 -0.089472175 -1.5155685 1.2897755 0.42740425 -0.6857256 -0.39760476
1.125564 0.85268056 -0.77182734 0.09133701 0.72512525 0.09994677 0.3320133 1.2165867
-0.13053784 0.37302846 0.1122059 0.281197 0.32014135 0.7952744 0.049152352 -1.0210085
1.0089568 0.054292317 -0.092000194 -0.00734751 0.30004638 -0.36628702 -0.33284348 -0.06739041
0.4104448 -0.04986979 0.15806949 -0.17160134 0.1265599 1.0907559 -0.06593702 -0.25248736
-0.18253754 0.25572926 0.011321653 -0.7754933 0.020621758 -0.13923611 0.47362456 -0.076196395
-0.58683 -0.096432164 -0.090181425 0.110441 -0.38469312 -0.7568384 0.39226216 -0.2599213
0.120731905 0.49371272 -0.3475466 0.91656214 -0.2096054 -0.15369512 -0.50216895 -0.29718298
-1.2638779 0.77132434 -0.19606954 0.43418917 0.013471215 -0.14856261 -0.9379055 0.10825894
-0.41573766 0.40444237 0.25604796 0.6167797 -0.24844524 0.32071254 -0.12095679 -0.010429136
-0.020242698 0.12921889 0.37045354 -0.51612717 0.1578832 0.040252775 0.2872331 0.4456109
0.11198565 -0.18629532 0.19906494 0.40034917 -0.3253678 0.30495 -0.21674973 0.030840505
-0.47095037 -0.09378793 -0.15134116 -0.28880173 -0.22499278 0.026768653 0.31344697 0.008820178
0.005805131 -0.97164834 0.3307835 0.11088291 0.2622553 -0.6148185 0.103775814 0.6309454
-0.85841495 -0.13395752 0.092856005 -0.11904381 0.09760477 0.7696876 0.058881875 1.0200886
0.009665339 -0.46695215 0.7832839 -0.20042408 0.20478176 -0.15879795 -0.6785296 0.010101501
-0.3070043 0.09250527 -0.34402266 0.47992745 -0.16281517 0.3672641 -0.16697048 0.26886615
0.005558017 0.033150576 0.043410577 0.4868584 -0.17014197 0.15810002 -1.2596741 0.7658919
-0.49928752 -0.5596225 1.0616665 0.5466279 0.42164385 -0.49199063 -0.2817561 -0.26939824
0.48863497 -0.63673764 -0.57772964 0.06838727 0.16682486 -0.9095616 0.12083337 -0.15787739
-0.39157367 -0.6276134 -0.6157171 -0.068427965 -0.11393016 0.48026615 -0.6201324 0.76884
0.043494258 0.043376174 -0.19252129 0.25191787 -0.1632835 0.28005296 0.3067202 1.0642273
-0.41087985 -0.45744595 0.24912801 -0.8857243 -0.3250049 -1.0725993 0.3553857 0.671787
0.6973699 0.8897257 -0.23778835 1.0774736 -0.17457713 0.14490418 -0.0763695 0.13198544
0.19340947 0.4511697 -0.054072905 1.2948219 -0.38503945 -0.9263062 0.6998822 0.20188037
00000000: 47ab 5f3f 8cdf 233d 0c98 d33d ac9a 14bf
00000010: 0f89 71be 6d29 9a3e ec25 29be 3c51 c03e
00000020: b070 e8bd 4823 ffbe 447c 43bf a5df 9e3e
00000030: 7739 15be b573 99be 4ae9 4ebf 321c 283d
00000040: d406 283f a5bf 87bf d364 453e 667f 183f
00000050: 3450 af3e 35ad 963e a324 0ebe 5bb6 9ebe
00000060: ebf9 bcbe fbe5 babf 041f 55bf 7232 d93e
00000070: e8cd 2e3f 9ecc 8dbd 7999 f8bc de40 fb3e
00000080: 6601 5b3f d224 063f 975f 6dbe a339 203f
00000090: 9873 f73e 2f5b aa3e c147 813d 7182 713f
000000a0: af96 803e f14c a33e 52bf 18bd 4d4c 28bf
000000b0: 1b57 bdbf 4b0d 89be 0fda 91bc 7a12 9e3f
000000c0: 345b bc3e 1161 2b3f e9bb 433f b0aa b2be
000000d0: ba6a b4bf eb09 11bf 70e4 c4be 5ba8 06be
000000e0: 9334 41bf 683c b03f 303d b7bd 26fe c1bf
000000f0: 5d17 a53f bbd4 da3e b78b 2fbf da92 cbbe
00000100: 7b12 903f 4649 5a3f 7a96 45bf e60e bb3d
00000110: cfa1 393f e4b0 cc3d a6fd a93e 1db9 9b3f
00000120: b6ab 05be 96fd be3e 35cc e53d 0ef9 8f3e
00000130: 91e9 a33e 1a97 4b3f fa53 493d 68b0 82bf
00000140: 7f25 813f 9f61 5e3d 996a bcbd 62c3 f0bb
00000150: ae9f 993e f989 bbbe 766a aabe fc03 8abd
00000160: d225 d23e 4444 4cbd f8dc 213e 43b8 2fbe
00000170: eb98 013e e49d 8b3f fd09 87bd 0646 81be
00000180: 1feb 3abe f2ee 823e 747e 393c bb86 46bf
00000190: f6ee a83c e993 0ebe eb7e f23e db0c 9cbd
000001a0: 7e3a 16bf 3a7e c5bd 0ab1 b8bd e42e e23d
000001b0: 7ff6 c4be 29c0 41bf 96d6 c83e 6814 85be
000001c0: 4a42 f73d eac7 fc3e a1f1 b1be d1a3 6a3f
000001d0: cca2 56be 4162 1dbe 258e 00bf 5e28 98be
000001e0: c0c6 a1bf 8375 453f 74c6 48be 0b4e de3e
000001f0: 5fb6 5c3c cc20 18be 931a 70bf ddb6 dd3d
00000200: 91db d4be 1213 cf3e b818 833e 46e5 1d3f
00000210: 6e68 7ebe 6f34 a43e 32b8 f7bd f8de 2abc
00000220: 04d4 a5bc f551 043e 16ac bd3e e920 04bf
00000230: 22ac 213e 18e0 243d 3810 933e 1d27 e43e
00000240: bc58 e53d 33c4 3ebe aed7 4b3e 91fa cc3e
00000250: 9c96 a6be 6822 9c3e a4f3 5dbe 3aa5 fc3c
00000260: 6820 f1be e313 c0bd 2df9 1abe d2dd 93be
00000270: 8264 66be ef49 db3c 1f7c a03e 8282 103c
00000280: f838 be3b f2bd 78bf 745c a93e 9416 e33d
00000290: 5446 863e bf64 1dbf 6a88 d43d a385 213f
000002a0: 15c1 5bbf 292c 09be 4a2b be3d 3ecd f3bd
000002b0: 02e5 c73d 3f0a 453f 1f2e 713d 4392 823f
000002c0: 5f5b 1e3c 5a14 efbe 4b85 483f f83b 4dbe
000002d0: 4fb2 513e ee9b 22be 1eb4 2dbf c480 253c
000002e0: ab2f 9dbe 6773 bd3d bd23 b0be 0db9 f53e
000002f0: 05b9 26be 0a0a bc3e 4ffa 2abe d3a8 893e
00000300: 0720 b63b e6c8 073d 4acf 313d 8145 f93e
00000310: b239 2ebe f9e4 213e 003d a1bf 7e11 443f
00000320: 9da2 ffbe 6c43 0fbf b0e4 873f ceef 0b3f
00000330: b4e1 d73e 32e6 fbbe 5642 90be 91ee 89be
00000340: 5d2e fa3e 3d01 23bf 17e6 13bf a00e 8c3d
00000350: 23d4 2a3e 07d9 68bf 7c77 f73d 9caa 21be
00000360: 587c c8be 46ab 20bf a39f 1dbf f623 8cbd
00000370: 3754 e9bd 72e5 f53e ffc0 1ebf b3d2 443f
00000380: 0927 323d 37ab 313d 4d24 45be 61fb 803e
00000390: ca33 27be 1a63 8f3e 6e0a 9d3e 9a38 883f
000003a0: d85e d2be 5b36 eabe 6a1b 7f3e d4be 62bf
000003b0: 0b67 a6be ef4a 89bf 1df5 b53e 3cfa 2b3f
000003c0: d586 323f 10c5 633f ca7e 73be a8ea 893f
000003d0: 59c4 32be c361 143e 9d67 9cbd 3127 073e
000003e0: 220d 463e b7ff e63e 8d7b 5dbd b9bc a53f
000003f0: e423 c5be 6722 6dbf 7b2b 333f bab9 4e3e

bias_ih_l0 f4 [300]
-0.5442836 -0.42223597 -0.3373235 -0.17082338 0.103254765 0.08753564 -0.30259964 -0.15610833
-0.09004118 -0.1867519 -0.027878923 -0.31897253 -0.12945205 -0.32724848 0.2509262 -0.11419633
-0.21388881 -0.4839209 0.058555212 -0.17681281 -0.25475186 -0.16058794 -0.05230606 0.14336233
0.07151773 -0.17631575 -0.1429088 -0.39244556 -0.121901825 0.22550924 0.033414904 -0.22502822
-0.45451346 -0.40416476 -0.2506343 -0.08390015 -0.15828595 0.050353162 -0.22140251 -0.28072128
-0.24131303 -0.5328451 -0.42952937 -0.25141874 0.058990456 -0.44310626 -0.20098284 -0.676261
0.15188912 -0.08669385 -0.21677125 0.19264856 -0.32455003 -0.15063703 -0.3865383 -0.08301142
0.19830444 -0.26496077 -0.084026486 -0.02758985 -0.73383594 -0.17221774 -0.0132158445 -0.2833037
-0.48832518 0.00035855343 -0.11150214 -0.08084942 -0.31076014 -0.0061532473 0.15570156 -0.031589292
-0.16104533 0.06885602 -0.24983871 -0.22822732 -0.4635642 -0.2389046 -0.2155895 -0.47910142
-0.058868214 -0.006795454 0.13872637 0.033233423 -0.028711207 0.06508921 -0.4690812 -0.0800285
0.19951932 0.37339288 -0.3034547 0.1629441 -0.30518797 -0.48103562 -0.028426278 -0.20723657
-0.10183383 0.06663528 0.26334012 -0.20078334 -0.60483426 -0.8618233 -0.42143616 -0.4156933
-0.35500544 -0.30544707 -0.6568212 -0.39575517 0.04091264 -0.3906374 -0.28598517 -0.6076159
-0.37136376 -0.4345302 -0.40251467 -0.6406569 -0.20188278 -0.31574747 -0.5671567 -0.16636515
-0.45401177 -0.7803067 -0.75325024 -0.18471317 -0.57514143 -0.077624775 -0.35234195 -0.5085712
-0.07355945 -0.09390964 -0.07040723 -0.61348623 -0.44259754 -0.37391138 -0.61012405 -0.57766604
-0.26280054 -0.58283114 -0.7723323 -0.20255026 -0.37958843 -0.06424919 -0.76880246 -0.37715185
-0.21621802 -0.7068395 -0.20129906 -0.55091333 -0.3142238 -0.14574441 -0.13020368 -0.5657846
-0.52098495 -0.41258523 -0.42843947 -0.3727057 -0.52904207 -0.7432497 -0.33365595 -0.5059979
-0.83165187 -0.11203859 -0.02561254 -0.5000437 -0.8551519 -0.27422208 -0.6322703 -0.45630807
-0.7972293 -0.30887794 -0.24411261 -0.5961927 -0.26981783 -0.20839527 -0.29413673 -0.43665195
0.10410711 -0.908739 -0.3306034 -0.7843581 -0.39454138 -0.5872383 -0.32298738 -0.4636344
-0.5247449 -0.89351267 -1.0248005 -0.35701784 -0.4308751 -0.3758793 -0.38211071 -0.49061793
-0.69707185 -0.5802368 -0.53187674 -0.5279571 -0.1676368 0.0006793954 -0.4150487 -0.5476134
-0.18906814 0.23720159 -0.049511407 0.028617483 0.016096221 0.3330381 0.062316522 0.13877125
-0.18105653 0.34259513 -0.3089696 -0.27101573 -0.20844758 -0.21385102 -0.20221482 -0.0160353
0.0654394 -0.12900522 0.14466582 0.6119287 0.28617162 0.03505804 0.45852175 -0.15506513
0.06858612 -0.007875392 0.41500637 -0.2726702 -0.11447437 -0.28346494 0.06985816 -0.3027068
-0.19966052 0.22527093 0.092546836 0.07561001 0.33137497 0.06751505 -0.23701131 0.02621521
-0.1951412 -0.1901914 -0.08052889 -0.090788946 -0.14548734 0.15130796 0.194768 -0.13662188
0.118896425 -0.24355434 0.14718522 -0.20394428 -0.13248773 -0.5597364 -0.4243883 0.14992511
00000000: 2c56 0bbf 502f d8be aab5 acbe 53ec 2ebe
00000010: 3c77 d33d e345 b33d 57ee 9abe ddda 1fbe
00000020: 8367 b8bd e43b 3fbe 5762 e4bc 5e50 a3be
00000030: 148f 04be 1d8d a7be 6679 803e c4df e9bd
00000040: ab05 5bbe 7bc4 f7be 97d7 6f3d 6b0e 35be
00000050: d66e 82be 2a71 24be e13e 56bd 93cd 123e
00000060: e377 923d 1e8c 34be af56 12be a0ee c8be
00000070: aaa7 f9bd e5eb 663e 11de 083d cc6d 66be
00000080: fdb5 e8be afee cebe 2453 80be d8d3 abbd
00000090: b615 22be 1e3f 4e3d 57b7 62be b3ba 8fbe
000000a0: c31a 77be 8968 08bf 46eb dbbe f5b9 80be
000000b0: fa9f 713d d3de e2be 72ce 4dbe 711f 2dbf
000000c0: d288 1b3e 8c8c b1bd 48f9 5dbe aa45 453e
000000d0: 6c2b a6be 9840 1abe 59e8 c5be e401 aabd
000000e0: 5210 4b3e f0a8 87be 1416 acbd 1c04 e2bc
000000f0: acdc 3bbf d959 30be 4587 58bc 2f0d 91be
00000100: c205 fabe 3afc bb39 3c5b e4bd 6194 a5bd
00000110: f41b 9fbe 2ea1 c9bb 3b70 1f3e c663 01bd
00000120: 11e9 24be 6304 8d3d b8d5 7fbe 6cb4 69be
00000130: 4958 edbe 68a3 74be 7ec3 5cbe c84c f5be
00000140: cc1f 71bd 66ac debb 490e 0e3e c51f 083d
00000150: c433 ebbc 7e4d 853d 692b f0be fbe5 a3bd
00000160: cb4e 4c3e 5a2d bf3e 6a5e 9bbe d1da 263e
00000170: 9941 9cbe 4d4a f6be 3ade e8bc d335 54be
00000180: 418e d0bd 1478 883d 84d4 863e 269a 4dbe
00000190: 6bd6 1abf 74a0 5cbf 7bc6 d7be c1d5 d4be
000001a0: 46c3 b5be 8f63 9cbe 6f25 28bf 6ca0 cabe
000001b0: 0394 273d a001 c8be a66c 92be b78c 1bbf
000001c0: 6423 bebe be7a debe 6716 cebe 1702 24bf
000001d0: 5cba 4ebe a7a9 a1be 2e31 11bf a05b 2abe
000001e0: 3b74 e8be 2ec2 47bf 02d5 40bf 7325 3dbe
000001f0: 783c 13bf bdf9 9ebd 2a66 b4be b931 02bf
00000200: 56a6 96bd b353 c0bd aa31 90bd 6f0d 1dbf
00000210: 259c e2be 5071 bfbe 1731 1cbf ece1 13bf
00000220: cb8d 86be 6c34 15bf 92b7 45bf 5669 4fbe
00000230: 6a59 c2be 1495 83bd 3dd0 44bf 0c1a c1be
00000240: 4268 5dbe 6ff3 34bf 5721 4ebe a808 0dbf
00000250: f1e1 a0be 063e 15be 1d54 05be 42d7 10bf
00000260: 455f 05bf 5f3e d3be 6b5c dbbe 48d3 bebe
00000270: 4d6f 07bf 9d45 3ebf f4d4 aabe 1489 01bf
00000280: 23e7 54bf 7d74 e5bd 64d1 d1bc dd02 00bf
00000290: 3ceb 5abf d666 8cbe 77dc 21bf 36a1 e9be
000002a0: 3817 4cbf 4025 9ebe a8f8 79be 16a0 18bf
000002b0: 9025 8abe 9265 55be 1799 96be d890 dfbe
000002c0: 1c36 d53d 1ea3 68bf d944 a9be b1cb 48bf
000002d0: 5401 cabe 4055 16bf 9a5e a5be 7d61 edbe
000002e0: af55 06bf 3fbd 64bf aa2c 83bf 0bcb b6be
000002f0: a99b dcbe 4073 c0be 04a4 c3be 4632 fbbe
00000300: 4d73 32bf 668a 14bf 1329 08bf 3228 07bf
00000310: fba8 2bbe 7419 323a 4381 d4be 6430 0cbf
00000320: 149b 41be f9e4 723e 79cc 4abd 366f ea3c
00000330: 39dc 833c f883 aa3e 9c3f 7f3d 0d1a 0e3e
00000340: e266 39be a168 af3e 4331 9ebe 93c2 8abe
00000350: 4873 55be c3fb 5abe 6711 4fbe 765c 83bc
00000360: 1805 863d f219 04be 4723 143e 5ca7 1c3f
00000370: 1685 923e 0599 0f3d 5dc3 ea3e 65c9 1ebe
00000380: e176 8c3d ca07 01bc b77b d43e 6e9b 8bbe
00000390: 8a71 eabd 5122 91be cc11 8f3d 63fc 9abe
000003a0: cf73 4cbe 6cad 663e 3289 bd3d 6cd9 9a3d
000003b0: fba9 a93e 5545 8a3d 18b3 72be 48c1 d63c
000003c0: 18d3 47be 89c1 42be 55ec a4bd 8eef b9bd
000003d0: a2fa 14be 79f0 1a3e 4371 473e 9be6 0bbe
000003e0: f87f f33d 4f66 79be b9b7 163e c5d6 50be
000003f0: ddaa 07be e24a 0fbf 6c49 d9be f885 193e

bias_hh_l0 f4 [300]
-0.3649573 -0.517309 -0.2787282 -0.22845177 0.2411167 -0.062533475 -0.4239671 -0.16577078
-0.084679365 -0.10549606 -0.049337123 -0.38385057 -0.07965599 -0.24037802 0.23664911 -0.14341587
-0.20112516 -0.41868564 0.16434173 -0.13494946 -0.2428311 -0.12508997 -0.17936936 0.15786535
0.01909988 -0.14658676 -0.0023286992 -0.36460018 -0.015167595 0.25698012 0.21101859 -0.3594523
-0.42420182 -0.44443807 -0.23402055 -0.15969846 -0.07714062 0.17463538 -0.08891301 -0.1698099
-0.27068606 -0.46379042 -0.43711096 -0.40828842 0.05893136 -0.38675764 -0.23912805 -0.65239996
0.1559209 -0.038115837 -0.19277215 0.1889534 -0.37833667 -0.227695 -0.28539273 0.05681321
0.092339404 -0.3590148 -0.005150712 -0.03795061 -0.7283972 -0.32456723 0.01310965 -0.22511849
-0.5389981 -0.03626889 -0.20456018 -0.1198563 -0.40068305 -0.12551495 0.1738637 0.026249064
-0.22294573 -0.029660074 -0.31791785 -0.30617672 -0.40288946 -0.26677048 -0.24385703 -0.47053745
-0.08191395 -0.0039785034 0.047756217 0.013313982 0.048868835 0.2276573 -0.41280904 -0.179198
0.31416994 0.33109134 -0.34434503 0.10953047 -0.33617356 -0.47339866 0.019663837 -0.078061506
-0.12062712 -0.0014691099 0.24688148 -0.20729804 -0.4676858 -0.6888641 -0.2980263 -0.31171516
-0.4748894 -0.47260413 -0.55533046 -0.36805612 -0.109634414 -0.53751254 -0.29547018 -0.5196484
-0.4231813 -0.38493663 -0.36202797 -0.65061706 -0.033407018 -0.42997107 -0.54993266 -0.031925406
-0.53201264 -0.7073554 -0.8261943 -0.3467588 -0.53308 -0.09612299 -0.42332494 -0.4314163
-0.20935693 -0.17791721 -0.25297093 -0.61034113 -0.441084 -0.2930432 -0.62279207 -0.45568344
-0.33609477 -0.5005432 -0.79870486 -0.2958853 -0.39544606 -0.21194102 -0.9025199 -0.27053463
-0.10892418 -0.8011299 -0.20290495 -0.5800806 -0.22049028 -0.23505007 -0.14994843 -0.6694387
-0.47373006 -0.4106429 -0.46019253 -0.39459783 -0.66678315 -0.70829344 -0.28877667 -0.46869686
-0.7941349 -0.15225233 0.086607166 -0.5829534 -0.9802953 -0.2966209 -0.75209266 -0.48537654
-0.7886809 -0.4118659 -0.23341918 -0.5786916 -0.25173628 -0.27690092 -0.40358144 -0.5668796
0.2723771 -0.9068762 -0.20935836 -0.75318974 -0.34197402 -0.5349836 -0.27853662 -0.5381431
-0.56399006 -0.8037692 -0.93363965 -0.3688695 -0.58963484 -0.36278164 -0.23765695 -0.53738177
-0.7152508 -0.5959426 -0.47357413 -0.48765624 -0.06556155 0.117134824 -0.3668491 -0.6914527
0.004712494 0.14710362 0.2059043 -0.054941986 -0.41465518 0.10503815 -0.06530797 0.08087438
0.3075948 0.79233193 0.20195432 -0.48453578 -0.28364667 0.109345965 0.034335278 0.40496507
-0.48451412 0.11229187 0.6891291 0.12617715 0.7449804 0.56948656 0.77312464 -0.18266827
0.49707723 0.18279935 0.31982067 -0.24247499 -0.11660648 -0.532824 -0.3483446 -0.5018208
-0.30727088 0.14089856 0.4747377 0.05721988 0.20169708 0.24072437 0.3305386 0.017876208
-0.6258194 -0.07162524 -0.34492064 -0.51716584 0.16431966 0.4098047 -0.03463375 -0.16942912
0.43868473 -0.41160902 0.08187806 0.4305283 -0.12902756 0.06640295 -0.17117375 0.34575218
00000000: afdb babe 5d6e 04bf 76b5 8ebe 43ef 69be
00000010: 4ce7 763e 8d11 80bd 3712 d9be d1bf 29be
00000020: 606c adbd 510e d8bd b915 4abd 1088 c4be
00000030: ae22 a3bd a825 76be 2554 723e 9cdb 12be
00000040: c1f3 4dbe f75d d6be 3349 283e 3130 0abe
00000050: b7a8 78be 9617 00be 9aac 37be 74a7 213e
00000060: 5a77 9c3c d71a 16be 179d 18bb e0ac babe
00000070: 8181 78bc e692 833e 4215 583e 220a b8be
00000080: fb30 d9be 638d e3be 15a3 6fbe fe87 23be
00000090: e7fb 9dbd 9ed3 323e 0618 b6bd a5e2 2dbe
000000a0: 5d97 8abe f075 edbe 02cd dfbe 2e0b d1be
000000b0: 0262 713d 1905 c6be fcdd 74be af03 27bf
000000c0: baa9 1f3e 5a1f 1cbd 1066 45be 007d 413e
000000d0: 58b5 c1be e128 69be ff1e 92be f8b4 683d
000000e0: 711c bd3d cad0 b7be 4ec7 a8bb 1972 1bbd
000000f0: 3d78 3abf ad2d a6be dcc9 563c 7685 66be
00000100: c8fb 09bf b08e 14bd 3978 51be 3877 f5bd
00000110: 5426 cdbe fe86 00be 5309 323e 4708 d73c
00000120: e34b 64be aff9 f2bc 21c6 a2be 32c3 9cbe
00000130: 8747 cebe 2496 88be a8b5 79be 49ea f0be
00000140: 80c2 a7bd 1b5e 82bb 069c 433d e322 5a3c
00000150: b02a 483d ff1e 693e b55b d3be ae7f 37be
00000160: e2da a03e ce84 a93e fe4d b0be 8351 e03d
00000170: f11e acbe 4f61 f2be 0e16 a13c b6de 9fbd
00000180: 5a0b f7bd 268f c0ba 80ce 7c3e f045 54be
00000190: 8374 efbe 6659 30bf e796 98be 2199 9fbe
000001a0: b424 f3be 2bf9 f1be 232a 0ebf da71 bcbe
000001b0: 0288 e0bd 6c9a 09bf de47 97be ad07 05bf
000001c0: 38ab d8be 6a16 c5be bb5b b9be d78e 26bf
000001d0: ccd5 08bd 2b25 dcbe 63c8 0cbf 37c4 02bd
000001e0: fb31 08bf 3e15 35bf 7881 53bf 5f8a b1be
000001f0: ee77 08bf 21dc c4bd 0cbe d8be 99e2 dcbe
00000200: aa61 56be ee2f 36be 6885 81be 513f 1cbf
00000210: c3d5 e1be c209 96be 4d6f 1fbf 574f e9be
00000220: 9d14 acbe 9923 00bf ec77 4cbf 477e 97be
00000230: e877 cabe 1107 59be 8b0b 67bf 8483 8abe
00000240: a413 dfbd d916 4dbf 51c6 4fbe 2a80 14bf
00000250: 34c8 61be f7b0 70be 158c 19be 5660 2bbf
00000260: bf8c f2be c93f d2be 5b9e ebbe ba08 cabe
00000270: 4db2 2abf b852 35bf 89da 93be 09f9 efbe
00000280: 6d4c 4bbf 09e8 1bbe 195f b13d 6f3c 15bf
00000290: a2f4 7abf b2de 97be 2589 40bf 4683 f8be
000002a0: fee6 49bf 16e0 d2be 7005 6fbe 2225 14bf
000002b0: 94e3 80be f5c5 8dbe 3aa2 cebe 051f 11bf
000002c0: 0375 8b3e 0a29 68bf 0a62 56be 0bd1 40bf
000002d0: 3817 afbe aff4 08bf 5a9c 8ebe bfc3 09bf
000002e0: a761 10bf d1c3 4dbf 0203 6fbf 77dc bcbe
000002f0: 4ff2 16bf 84be b9be 585c 73be da91 09bf
00000300: ad1a 37bf b28f 18bf 4f78 f2be 14ae f9be
00000310: 2245 86bd 62e4 ef3d a5d3 bbbe 0b03 31bf
00000320: 446b 9a3b 55a2 163e 94d8 523e d90a 61bd
00000330: af4d d4be 3e1e d73d 2fc0 85bd 78a1 a53d
00000340: 117d 9d3e 44d6 4a3f 1dcd 4e3e 1315 f8be
00000350: 233a 91be c7f0 df3d 26a3 0c3d 9557 cf3e
00000360: 3c12 f8be 48f9 e53d c46a 303f 9534 013e
00000370: 09b7 3e3f dfc9 113f 7feb 453f 640d 3bbe
00000380: e880 fe3e c12f 3b3e 89bf a33e 5d4b 78be
00000390: 61cf eebd 2767 08bf 395a b2be 5477 00bf
000003a0: 9c52 9dbe b647 103e d210 f33e 655f 6a3d
000003b0: ae89 4e3e 7380 763e 5b3c a93e 2071 923c
000003c0: b335 20bf 41b0 92bd 7099 b0be fb64 04bf
000003d0: 6a43 283e ecd1 d13e 1edc 0dbd d47e 2dbe
000003e0: 499b e03e 6bbe d2be afaf a73d 356e dc3e
000003f0: cd1f 04be 45fe 873d 2c48 2fbe 6e06 b13e

weight_ih_l1 f4 [300, 100]
0.76984453 -0.2524136 0.44762713 0.20101944 -0.84477365 0.32426545 -0.70131713 0.058161017
-0.016175939 0.38238788 -0.434753 0.9918632 1.5171754 0.71043736 0.8223511 0.018961454
-0.60374904 -0.60773724 -0.21511161 -0.6110349 -0.46843028 -0.14557153 0.44881973 -0.274127
0.37996066 0.706551 -0.09878985 -0.8407991 0.5226785 0.122751154 -0.062459987 -0.48718953
-0.083928116 -0.7000993 0.4710319 0.8890198 0.4401472 0.33433762 -0.981637 0.0105367955
0.24095944 0.0007519855 0.17292224 0.18925731 -0.03533944 -0.5472422 -0.76229686 -0.053832274
0.675197 1.0030304 -0.65197504 -0.0014640114 -0.40384838 0.6624665 0.35218722 0.3718104
-0.33511555 0.31446263 0.08711173 0.33101955 0.5437362 -0.5221688 -0.47280028 -0.23673372
0.044179343 -0.94838345 -0.82830083 0.68794996 0.022394275 0.018850833 -0.066317745 0.88014007
0.03600787 -0.7197456 0.43350267 0.16651939 0.6441779 0.3283922 0.3044047 -0.3763557
-0.20202525 -0.39061067 0.073447905 0.70902956 -0.3278683 0.11150048 -0.12176477 0.68141836
-0.0777703 -0.59023076 -0.5279662 -0.055564083 -1.2185715 -1.0411899 0.5414281 0.75218886
0.9168205 0.053452767 -0.11729749 0.5141823 0.6113645 -0.84846085 0.0011673935 -0.21389188
0.1328467 -0.45860913 -0.64401925 -0.74140036 0.17125608 -0.0909081 0.86423755 0.25052384
0.23008922 -0.107195795 0.28485957 0.5186471 0.39370763 0.58932656 -0.072954945 -0.051602494
0.50587904 -0.76457536 -0.4284223 -0.1689349 0.21342479 -0.4962969 -0.39361382 0.35666996
0.008910972 0.8674592 -0.49001136 -0.27386037 0.9563596 0.64583033 0.80635744 0.06538652
-0.0071998206 -0.31886843 -0.20966437 0.46186942 -0.5619668 0.3103833 -0.3654452 0.2290611
0.8427723 0.032142643 -0.015987651 -0.62165874 -0.18365705 0.030494252 -0.34214917 0.43101162
0.47892684 -0.41730928 -0.011681629 -0.15340635 -0.12201103 0.30503324 0.27936634 0.12239544
-1.790375 -0.110938445 0.26605946 1.1200603 -0.48462588 -0.15615366 -0.025490569 0.045282412
0.063662045 0.75072306 -0.2452595 -0.62025493 -1.3081247 -0.33107162 0.12509094 -0.16191268
-0.22787018 0.5703648 -0.27995995 -0.04649807 0.4253205 -0.609132 -0.40191785 0.13548882
-0.9944434 -0.644315 0.4056517 0.29925108 -0.5657035 0.089226775 -0.37899375 -0.5820195
0.12849335 0.03605181 -1.2891558 0.7008913 0.740436 -0.19329655 -0.7657099 0.5439814
-0.073701926 0.7127983 -0.46115047 -0.17824024 -0.35647094 0.69726825 -0.47348246 0.24706393
0.44290292 0.08739049 1.4768884 -0.06625635 1.0511818 0.74460065 0.5421106 -0.37753868
0.47485948 0.07092787 -0.714824 0.048816286 0.33536586 0.17474207 -0.17377055 0.57615817
0.040079877 0.5987584 -0.32396904 -0.65032434 -0.5249105 0.1465256 -0.42086717 0.65698916
-0.12916863 -0.022859834 0.17941764 -0.24410202 0.12335544 0.41127527 0.3133673 0.06179214
0.049133673 -0.37498805 0.14589942 0.48608908 0.4762548 0.005117503 -0.8105379 -0.317325
-0.21056381 -0.38108107 0.11687526 -0.29706493 0.13562183 0.1664689 0.8950824 -0.2642985
00000000: 8814 453f 5b3c 81be 622f e53e 0ad8 4d3e
00000010: 1643 58bf 1f06 a63e 8589 33bf 3f3a 6e3d
00000020: 6783 84bc 58c8 c33e f297 debe bfea 7d3f
00000030: ce32 c23f 39df 353f 9a85 523f 0d55 9b3c
00000040: 4c8f 1abf ab94 1bbf 3846 5cbe c96c 1cbf
00000050: 18d6 efbe b410 15be b3cb e53e 605a 8cbe
00000060: 348a c23e 87e0 343f 5552 cabd 9c3e 57bf
00000070: 42ce 053f f564 fb3d 0bd6 7fbd e870 f9be
00000080: 81e2 abbd b539 33bf 182b f13e cd96 633f
00000090: f95a e13e 4d2e ab3e 904c 7bbf 86a2 2c3c
000000a0: 12be 763e e520 453a 8712 313e abcc 413e
000000b0: 17c0 10bd 1118 0cbf e325 43bf 3b7f 5cbd
000000c0: b6d9 2c3f 4d63 803f d6e7 26bf 12e4 bfba
000000d0: 37c5 cebe 6897 293f e251 b43e ef5d be3e
000000e0: 4494 abbe 3f01 a13e a267 b23d 657b a93e
000000f0: 4c32 0b3f dbac 05bf e112 f2be 536a 72be
00000100: 66f5 343d 42c9 72bf 860b 54bf 7d1d 303f
00000110: 3374 b73c 106d 9a3c 99d1 87bd dc50 613f
00000120: fd7c 133d 3f41 38bf 10f4 dd3e 0f84 2a3e
00000130: d8e8 243f 0623 a83e efda 9b3e b2b1 c0be
00000140: b5df 4ebe 1ffe c7be db6b 963d f682 353f
00000150: 5bde a7be 5d5a e43d cf5f f9bd 6f71 2e3f
00000160: 0946 9fbd 5d19 17bf cb28 07bf 2a97 63bd
00000170: 27fa 9bbf b645 85bf 089b 0a3f 738f 403f
00000180: c0b4 6a3f 4af1 5a3d ab39 f0bd 74a1 033f
00000190: 6282 1c3f bb34 59bf 3a03 993a 7906 5bbe
000001a0: f708 083e d1ce eabe 72de 24bf 6acc 3dbf
000001b0: c15d 2f3e 072e babd ac3e 5d3f a944 803e
000001c0: 829c 6b3e 7889 dbbd 1dd9 913e 0ec6 043f
000001d0: 0c94 c93e 1bde 163f 6769 95bd 235d 53bd
000001e0: 4a81 013f 36bb 43bf 2b5a dbbe 45fd 2cbe
000001f0: 078c 5a3e a11a febe c087 c9be 729d b63e
00000200: 53ff 113c ce11 5e3f c5e2 fabe 6d37 8cbe
00000210: fcd3 743f 2355 253f 716d 4e3f 5ee9 853d
00000220: 79ec ebbb b942 a3be 42b2 56be 267a ec3e
00000230: 0edd 0fbf 8fea 9e3e a21b bbbe fe8e 6a3e
00000240: edbf 573f 01a8 033d 89f8 82bc 0725 1fbf
00000250: 9810 3cbe 15cf f93c 2d2e afbe 8ead dc3e
00000260: e635 f53e 90a9 d5be 4e64 3fbc 8e16 1dbe
00000270: ebe0 f9bd 512d 9c3e 1b09 8f3e 76aa fa3d
00000280: 022b e5bf b233 e3bd f238 883e 235e 8f3f
00000290: e220 f8be bfe6 1fbe 99d1 d0bc 0d7a 393d
000002a0: 3f61 823d 632f 403f 4e25 7bbe 07c9 1ebf
000002b0: a170 a7bf 3882 a9be d717 003e 70cc 25be
000002c0: cd56 69be 6d03 123f e956 8fbe c374 3ebd
000002d0: 9cc3 d93e 13f0 1bbf 2dc8 cdbe 95bd 0a3e
000002e0: d893 7ebf d4f1 24bf 94b1 cf3e 7037 993e
000002f0: f2d1 10bf 87bc b63d 780b c2be 3bff 14bf
00000300: c393 033e 10ab 133d 0f03 a5bf 9d6d 333f
00000310: 378d 3d3f 88ef 45be 9005 44bf 5d42 0b3f
00000320: 09f1 96bd f379 363f ea1b ecbe 9c84 36be
00000330: 5c83 b6be 2c80 323f 4b6c f2be 54fe 7c3e
00000340: 2cc4 e23e c9f9 b23d ae0a bd3f 69b1 87bd
00000350: 208d 863f 269e 3e3f c3c7 0a3f c04c c1be
00000360: c820 f33e a242 913d b5fe 36bf 96f3 473d
00000370: 13b5 ab3e 96ef 323e e8f0 31be 1a7f 133f
00000380: cc2a 243d 3b48 193f 45df a5be a87b 26bf
00000390: 8960 06bf cf0a 163e e77b d7be 7130 283f
000003a0: c844 04be 8c44 bbbc 42b9 373e e1f5 79be
000003b0: c7a1 fc3d ac92 d23e ae71 a03e c119 7d3d
000003c0: 6440 493d 6ffe bfbe a866 153e abe0 f83e
000003d0: abd7 f33e bab0 a73b 697f 4fbf 6c78 a2be
000003e0: 0a9e 57be 0f1d c3be 4c5c ef3d e518 98be
000003f0: 73e0 0a3e d376 2a3e 1f24 653f 2252 87be

weight_hh_l1 f4 [300, 100]
-0.34766626 0.32925817 0.21083815 -0.3496258 0.15466887 0.11629173 0.040648747 -0.80625397
-0.4333789 -0.43359992 -0.24335806 0.32869434 -0.50383157 0.65722156 0.14355491 -0.55997556
0.14198507 0.5398649 -0.21968487 -0.25091255 -0.47868374 0.027926005 -0.39559364 -0.61179817
-0.6325655 -0.29932395 0.345914 0.41878513 -0.13789432 0.15320393 0.06044869 0.07704623
-0.20078257 0.058780883 -0.21662769 -0.111622706 -0.24727345 0.13309549 0.41570085 -0.037749838
-0.46613097 -0.082472004 -0.5299648 -0.2666338 -0.20485461 0.56385314 -0.4656074 -0.20758258
-0.77110773 0.25931963 0.2730995 0.104054436 0.26123327 -0.1515317 0.15062366 -0.035417847
-0.8505076 -0.22696175 0.4345963 -0.7790741 -0.49333963 0.008235546 0.56107265 -0.095248856
-0.28353828 -0.59330636 -0.18763497 -0.34291056 -0.7582398 0.16322432 0.20270081 -0.1847284
0.09863798 -0.12253927 -0.20958689 0.38710985 -0.3106521 0.15667005 -0.2847549 0.14178146
-0.13515434 0.06598157 -0.2663967 -0.11536097 -0.012028907 -0.35890666 0.5491236 -0.19935717
0.047652397 -0.7218372 -0.30243596 -0.26817465 0.59461975 0.16506466 0.41281343 0.14865038
-0.17541331 0.15221165 -0.5371284 0.38665825 0.19990395 -0.19291683 0.058720496 0.03806051
-0.23601782 0.046497896 -0.5971694 2.2798913 -0.050998084 0.8686149 -0.36321533 -0.6555607
0.49044734 0.6971461 0.41693115 0.3212978 0.23515457 0.27428374 -0.3382843 -0.46194422
0.4712466 -0.21314308 -0.49039328 -0.30095682 -0.34151518 0.28236964 0.019573558 0.32816812
-0.28702998 -0.59859496 0.1645865 0.1577528 -0.107498474 -0.56765825 -0.15612917 0.20161846
0.25631657 -0.10433254 -0.24349898 0.015540846 -0.45485476 -0.08884375 1.1346859 -0.16408513
-0.19404864 -0.8472853 0.6970047 -0.3008839 -0.54649854 -0.10057622 0.37922975 0.21118142
-0.09543625 0.83031654 -0.56432277 0.4751191 0.08936183 -0.013393145 -0.22693425 0.6705931
-0.13346303 0.49872553 -0.70104873 -0.08171815 0.25650993 -0.36458746 -0.18696125 -0.0043880544
1.0112387 0.6940008 -0.6632966 0.09077067 0.14345391 -0.15023646 0.013847414 -0.052988373
0.02328683 0.2087695 0.3281449 -0.16657579 0.14594819 0.043682948 0.5984389 0.30102563
0.113559954 0.28921494 -0.56401074 -0.22624825 0.2732277 -0.19834661 -0.24085577 0.12279194
-0.10400438 -0.15343106 -0.59861785 -0.77104557 -0.18517572 0.18206368 1.0442119 0.024625797
-0.05172155 -0.24544945 0.24200389 0.57524145 0.18664978 -0.043578647 -0.13327883 0.16374943
-0.70371056 0.08522685 -0.015432547 -0.10949329 -0.1106025 0.29044586 0.029574037 -0.04842542
-0.32476705 0.13715921 -0.13529867 0.26583266 -0.075333625 0.35141608 -0.24673064 0.1302476
-0.26796046 0.22556335 0.5007138 0.14732732 -0.22066563 0.003956607 0.0776212 -0.06972542
0.05987373 0.1823799 -0.015162503 -0.40902323 0.31392497 -0.5067013 0.042906642 -0.40157238
-0.065089345 -0.10352821 0.71988225 -0.06387855 -0.031692915 -1.1240791 -0.08803337 0.4297033
0.042648718 0.2943492 0.34059894 -0.07509084 -0.04695022 -0.39010134 -0.647984 0.52835333
00000000: 5001 b2be 8794 a83e f5e5 573e 2702 b3be
00000010: 8461 1e3e 5c2a ee3d 4d7f 263d a966 4ebf
00000020: d7e3 ddbe cf00 debe db32 79be a04a a83e
00000030: 1bfb 00bf ac3f 283f 0f00 133e 8f5a 0fbf
00000040: 8964 113e 9634 0a3f 12f5 60be 9c77 80be
00000050: 0916 f5be 14c5 e43c 408b cabe ce9e 1cbf
00000060: d0ef 21bf fd40 99be a41b b13e 016b d63e
00000070: 2b34 0dbe 7ee1 1c3e 0c99 773d 6aca 9d3d
00000080: f299 4dbe 39c4 703d a6d3 5dbe 729a e4bd
00000090: 4035 7dbe 2f4a 083e bed6 d43e 939f 1abd
000000a0: b8a8 eebe 15e7 a8bd c6ab 07bf 3a84 88be
000000b0: 68c5 51be ae58 103f 1864 eebe 8790 54be
000000c0: 5167 45bf 8bc5 843e b3d3 8b3e 7e1a d53d
000000d0: 5ec0 853e 202b 1bbe 173d 1a3e 4e12 11bd
000000e0: deba 59bf a968 68be 6883 de3e 6671 47bf
000000f0: 0397 fcbe 62ee 063c 75a2 0f3f d511 c3bd
00000100: ee2b 91be ede2 17bf 6223 40be f991 afbe
00000110: 011c 42bf 4724 273e cd90 4f3e 7129 3dbe
00000120: b602 ca3d def5 fabd f29d 56be 4333 c63e
00000130: cb0d 9fbe 1d6e 203e 65cb 91be 292f 113e
00000140: e665 0abe 5821 873d 2665 88be 5f42 ecbd
00000150: e514 45bc 9dc2 b7be 5d93 0c3f 4924 4cbe
00000160: 292f 433d 53ca 38bf e3d8 9abe 304e 89be
00000170: 0039 183f b606 293e 485c d33e ce37 183e
00000180: 8c9f 33be 5fdd 1b3e 3f81 09bf 12f8 c53e
00000190: 9fb3 4c3e fd8b 45be e784 703d 56e5 1b3d
000001a0: a8ae 71be 9474 3e3d 18e0 18bf bde9 1140
000001b0: 5ee3 50bd 8c5d 5e3f 5cf7 b9be d3d2 27bf
000001c0: ea1b fb3e 2b78 323f 0078 d53e 2581 a43e
000001d0: 5ccc 703e eb6e 8c3e 9a33 adbe f483 ecbe
000001e0: 3c47 f13e 2e42 5abe d414 fbbe 0317 9abe
000001f0: 14db aebe c192 903e ba58 a03c a705 a83e
00000200: 98f5 92be 853d 19bf 5d89 283e f389 213e
00000210: 2928 dcbd 0d52 11bf 53e0 1fbe 1275 4e3e
00000220: ed3b 833e 4cac d5bd cc57 79be 089f 7e3c
00000230: b9e2 e8be b6f3 b5bd 633d 913f ef05 28be
00000240: b0b4 46be b0e7 58bf e66e 323f 740d 9abe
00000250: 54e7 0bbf e8fa cdbd 672a c23e f13f 583e
00000260: 1574 c3bd a08f 543f 7577 10bf d042 f33e
00000270: 5603 b73d ec6e 5bbc 7461 68be fdab 2b3f
00000280: 88aa 08be f458 ff3e ee77 33bf d85b a7bd
00000290: 4555 833e 35ab babe c572 3fbe abc9 8fbb
000002a0: 4570 813f 09aa 313f cecd 29bf f9e5 b93d
000002b0: 95e5 123e 96d7 19be 44e0 623c 560a 59bd
000002c0: 06c4 be3c acc7 553e 9c02 a83e d892 2abe
000002d0: 7173 153e e4ec 323d 4b33 193f 0820 9a3e
000002e0: 1f92 e83d fb13 943e 0263 10bf 9fad 67be
000002f0: 80e4 8b3e 601b 4bbe e5a2 76be 577a fb3d
00000300: 4000 d5bd 081d 1dbe 053f 19bf 3e63 45bf
00000310: b49e 3dbe e76e 3a3e bca8 853f 0abc c93c
00000320: fad9 53bd 1a57 7bbe decf 773e 0643 133f
00000330: 1f21 3f3e 867f 32bd 3f7a 08be eead 273e
00000340: 6026 34bf 6a8b ae3d cbd8 7cbc 053e e0bd
00000350: 9083 e2bd 52b5 943e 4045 f23c bc59 46bd
00000360: de47 a6be 7773 0c3e bc8b 0abe 381b 883e
00000370: 8448 9abd cfec b33e f5a6 7cbe a05f 053e
00000380: 1d32 89be 14fa 663e c82e 003f f9dc 163e
00000390: 2cf6 61be 6da6 813b ddf7 9e3d 33cc 8ebd
000003a0: 283e 753d ccc1 3a3e 266c 78bc 7e6b d1be
000003b0: c6ba a03e 2db7 01bf e0be 2f3d e59a cdbe
000003c0: 904d 85bd 9906 d4bd 344a 383f c2d2 82bd
000003d0: 6ed0 01bd d3e1 8fbf d74a b4bd 1202 dc3e
000003e0: 6cb0 2e3d f0b4 963e fc62 ae3e 3ac9 99bd
000003f0: e04e 40bd 5dbb c7be 48e2 25bf 2a42 073f

bias_ih_l1 f4 [300]
-0.12330599 -0.19101284 -0.06635784 -0.25554606 0.04665307 -0.26774567 0.059543062 0.036134627
-0.16270518 -0.018279172 0.083531134 -0.15351404 -0.13041994 -0.17480412 -0.06681109 0.059763245
-0.021648753 -0.13570352 0.22719757 -0.14799756 -0.25101534 0.13835934 0.11420975 -0.17758279
-0.0444849 -0.18353955 0.12044157 0.0186501 0.08709888 -0.12318362 0.10737037 0.08958245
0.06174012 0.049782988 0.14889687 -0.06178622 0.16708715 -0.11452791 0.15738732 -0.00086464523
-0.19515929 0.216619 -0.23189281 0.0488507 0.041821375 -0.22795059 -0.05139652 -0.24479829
-0.22290397 -0.03345902 -0.22597133 0.15571824 -0.0217124 -0.28464043 -0.18794239 -0.15033692
-0.05894161 -0.06951016 0.1150993 -0.19671102 -0.050559677 0.14389998 -0.05260488 0.28203464
0.01476629 0.28865927 -0.11717579 0.036143247 -0.04158679 -0.21030487 0.11029796 0.3660047
0.07470534 0.417145 -0.0789352 -0.031042926 0.23861745 -0.12555635 -0.21387558 0.038738206
-0.11269518 0.18792513 -0.010439757 -0.2359972 -0.27715325 0.05453076 0.13557793 0.19143973
-0.09388829 -0.13803166 -0.19972286 -0.020722859 0.36564264 0.23194115 -0.05178625 0.13321425
-0.10518482 0.0564648 -0.10228309 -0.024151761 -0.44619593 -0.050655324 0.09406435 -0.3018414
-0.38537678 -0.063804105 -0.20409432 0.12907316 -0.101362154 0.03751795 -0.07241375 -0.33905444
0.04123392 -0.0770306 -0.2157606 -0.12094021 -0.10513494 -0.08243213 0.081900425 -0.3313803
-0.07591053 -0.07653755 -1.2882419 -0.12201193 -0.30103156 0.024507647 -0.11997813 -0.88920647
-0.000102413935 -0.29200572 -0.4267113 -0.18359035 -0.5318309 -0.13938731 -0.5437182 0.067617334
-0.2993996 -0.101186246 -0.13072054 0.06626426 -0.45825496 0.17750205 -0.14767006 -0.855217
-0.27956352 -0.20246246 -0.020858457 -0.2799742 -0.2525202 -0.054232005 -0.25342655 -0.34171355
-0.04873407 0.28881767 -0.29289946 -0.17764057 -0.24452648 -0.5708865 -0.051510125 -0.091096945
0.16004843 -1.094218 -0.47924218 -0.5346737 -0.27298626 -0.52214164 -0.9301249 -0.32269844
-0.19677386 -0.47318932 -0.43134868 -0.26240742 -0.41054577 -0.5072265 -0.26041758 0.36392996
0.005307357 0.24008684 -0.54008454 -0.3229042 -0.20745045 -0.18852147 -0.54889005 -0.081862874
-0.093529135 -0.52730936 -0.17792767 -0.5699621 -0.16568549 -0.30653316 -0.2954014 0.07631019
0.32044274 -0.95014083 0.12830466 -0.3098168 0.26555628 0.13675705 0.41388434 -0.43442112
-0.16420296 -0.2212851 -0.015793286 0.07502185 0.08231655 0.3024015 0.13364407 -0.03987507
0.032879442 0.07934439 -0.056290887 -0.1441443 0.08983583 0.123322144 -0.031462636 -0.12075953
0.055990893 0.0037293378 0.15023695 0.1461869 0.004696803 -0.286109 0.21638389 -0.11677799
0.12927926 0.004177398 -0.0051461905 -0.2519607 0.113520354 -0.19589294 -0.17119361 -0.11018003
0.196808 -0.17962953 0.24720654 0.03395975 0.10552695 0.09277869 -0.038038734 0.16004589
0.12419069 0.18270437 0.02709167 0.21890026 0.18568824 0.038095158 -0.28192073 0.060543884
-0.10618511 0.097990975 -0.04139556 -0.2610936 -0.14144725 -0.11177857 -0.17783555 -0.03785933
00000000: da87 fcbd df98 43be 9fe6 87bd efd6 82be
00000010: 4a17 3f3d f615 89be 6de3 733d e701 143d
00000020: 309c 26be 34be 95bc 5f12 ab3d c932 1dbe
00000030: ce8c 05be daff 32be 41d4 88bd 4eca 743d
00000040: ba58 b1bc ddf5 0abe 7ba6 683e ac8c 17be
00000050: 1585 80be 12ae 0d3e cde6 e93d 43d8 35be
00000060: cc35 36bd cbf1 3bbe 12aa f63d 18c8 983c
00000070: e660 b23d b247 fcbd ffe4 db3d 0177 b73d
00000080: 35e3 7c3d 3fe9 4b3d 6c78 183e 8c13 7dbd
00000090: e518 2b3e 9c8d eabd 242a 213e 5ca9 62ba
000000a0: d6d7 47be 5fd1 5d3e 4f75 6dbe ac17 483d
000000b0: e44c 2b3d e16b 69be 2885 52bd 67ac 7abe
000000c0: f040 64be 530c 09bd 0765 67be 9a74 1f3e
000000d0: 34de b1bc 64bc 91be f873 40be ecf1 19be
000000e0: c26c 71bd 585b 8ebd 2fb9 eb3d 9d6e 49be
000000f0: aa17 4fbd 845a 133e 3778 57bd d866 903e
00000100: 4fee 713c 26cb 933e dcf9 efbd f10a 143d
00000110: e956 2abd 295a 57be e6e3 e13d f864 bb3e
00000120: 1dff 983d 0894 d53e c7a8 a1bd bc4d febc
00000130: 2258 743e d891 00be 3302 5bbe f4ab 1e3d
00000140: bbcc e6bd 726f 403e 840b 2bbc 40a9 71be
00000150: 08e7 8dbe a55b 5f3d f1d4 0a3e c708 443e
00000160: 8148 c0bd 2c58 0dbe 2684 4cbe fcc2 a9bc
00000170: 8335 bb3e fb81 6d3e d21d 54bd 5169 083e
00000180: 246b d7bd a247 673d cc79 d1bd ead9 c5bc
00000190: cb73 e4be f57b 4fbd cfa4 c03d f58a 9abe
000001a0: 1b50 c5be baab 82bd 1afe 50be c12b 043e
000001b0: f696 cfbd 6cac 193d a94d 94bd 8b98 adbe
000001c0: e6e4 283d 38c2 9dbd 59f0 5cbe 80af f7bd
000001d0: fd50 d7bd 2dd2 a8bd 69bb a73d aeaa a9be
000001e0: fb76 9bbd b8bf 9cbd 1ce5 a4bf 64e1 f9bd
000001f0: cf20 9abe 43c4 c83c 18b7 f5bd 09a3 63bf
00000200: 10c7 d6b8 c681 95be e779 dabe 1cff 3bbe
00000210: 1226 08bf 8cbb 0ebe 1e31 0bbf f57a 8a3d
00000220: e84a 99be bc3a cfbd 9bdb 05be 8eb5 873d
00000230: 65a0 eabe 19c3 353e d236 17be 80ef 5abf
00000240: f322 8fbe 5252 4fbe 5bdf aabc c758 8fbe
00000250: 544a 81be 6122 5ebd 20c1 81be 14f5 aebe
00000260: 609d 47bd e9df 933e ebf6 95be 69e7 35be
00000270: 2665 7abe 9e25 12bf 48fc 52bd 0991 babd
00000280: bce3 233e 560f 8cbf 3b5f f5be 60e0 08bf
00000290: dbc4 8bbe 13ab 05bf aa1c 6ebf bb38 a5be
000002a0: 167f 49be df45 f2be bcd9 dcbe 445a 86be
000002b0: 0e33 d2be 99d9 01bf 7455 85be 0755 ba3e
000002c0: 56e9 ad3b 53d9 753e fb42 0abf b353 a5be
000002d0: e46d 54be c60b 41be 0f84 0cbf b9a7 a7bd
000002e0: 348c bfbd bffd 06bf ac32 36be 09e9 11bf
000002f0: 75a9 29be eaf1 9cbe da3e 97be 8448 9c3d
00000300: 1211 a43e 6e3c 73bf 4c62 033e 4fa0 9ebe
00000310: fef6 873e 0a0a 0c3e a6e8 d33e 726c debe
00000320: d224 28be 9098 62be ec60 81bc 0ea5 993d
00000330: 9495 a83d 5fd4 9a3e fed9 083e 0b54 23bd
00000340: 98ac 063d 507f a23d 4691 66bd 909a 13be
00000350: d9fb b73d 5290 fc3d f7de 00bd c650 f7bd
00000360: b556 653d e867 743b b7d7 193e 05b2 153e
00000370: a4e7 993b e17c 92be bd93 5d3e 4c29 efbd
00000380: c861 043e 8ee2 883b 60a1 a8bb fe00 81be
00000390: 5c7d e83d 2998 48be 614d 2fbe 11a6 e1bd
000003a0: 0988 493e cef0 37be b623 7d3e 6119 0b3d
000003b0: 831e d83d c102 be3d 81ce 1bbd 12e3 233e
000003c0: b057 fe3d db16 3b3e 5aef dd3c 6427 603e
000003d0: 0f25 3e3e ab09 1c3d ea57 90be ddfc 773d
000003e0: 9477 d9bd 7eaf c83d 648e 29bd 0fae 85be
000003f0: 8cd7 10be 2aec e4bd 861a 36be 6312 1bbd
